checkpoints/weather_96_96_CycleNet_custom_ftM_sl96_pl96_cycle144_mlp_seed2024/checkpoint.pth (torch, 410215 bytes, 5 tensors)

cycleQueue.data f4 [144, 21]
0	0x3e18727d	0.14887424
1	0xbeb17404	-0.34658825
2	0xbeb17420	-0.3465891
3	0x3d2a15ca	0.041524686
4	0x3e9fe5e6	0.31230086
5	0xbeb2b695	-0.34904924
6	0x3def2c3f	0.11678361
7	0xbed24970	-0.41071653
8	0x3ded1d6d	0.11577878
9	0x3deba809	0.115066595
10	0x3ed178a2	0.40912348
11	0xbe785762	-0.24252084
12	0xbed2c8fb	-0.4116896
13	0xbf0df5f4	-0.5545342
14	0xbf36abad	-0.71355706
15	0xbf1a1f37	-0.6020388
16	0xbe16fd65	-0.147451
17	0xbe19e98e	-0.150305
18	0xbe6b2aec	-0.22965592
19	0xbec6e1b5	-0.38844076
20	0x3e007da7	0.12547933
21	0x3e26fd46	0.16307554
22	0xbea13e28	-0.31492734
23	0xbea217f7	-0.3165891
24	0x3d772885	0.060341377
25	0x3e92389a	0.2855881
26	0xbeaac08d	-0.3335003
27	0x3e0b67dc	0.13613838
28	0xbec959e8	-0.39326406
29	0x3e08b879	0.1335162
30	0x3e0826c4	0.13296038
31	0x3ec39774	0.38201487
32	0xbe6f4755	-0.23367055
33	0xbef1b648	-0.47209382
34	0xbf0442d4	-0.5166447
35	0xbf362cab	-0.7116191
36	0xbf2ebdaf	-0.68258184
37	0xbdeebd17	-0.1165716
38	0xbdf245b0	-0.11829698
39	0xbe49ba2e	-0.19699928
40	0xbeaee78f	-0.3416104
41	0x3dc58a1c	0.09645483
42	0x3e330af2	0.17484644
43	0xbe964508	-0.29349542
44	0xbe971688	-0.29509377
45	0x3d8851b0	0.06656206
46	0x3e831ef5	0.25609556
47	0xbea6e973	-0.32599983
48	0x3e0dbc5a	0.13841382
49	0xbec5023b	-0.38478264
50	0x3e0ba2bf	0.13636301
51	0x3e09dd63	0.13463359
52	0x3eb5de59	0.355212
53	0xbe3fabdd	-0.18717904
54	0xbee861bd	-0.45387068
55	0xbf08da17	-0.5345778
56	0xbf2ffb68	-0.6874299
57	0xbf21bee8	-0.63181925
58	0xbddf2490	-0.108956456
59	0xbdde460b	-0.108532034
60	0xbe03762f	-0.12838052
61	0xbe99a598	-0.3000915
62	0x3da4734a	0.08029802
63	0x3e3b7406	0.18305978
64	0xbe86bede	-0.26317495
65	0xbe88c93b	-0.26716027
66	0x3d8abbd9	0.0677411
67	0x3e6227c4	0.22085482
68	0xbe9d5257	-0.30726883
69	0x3e0a6f55	0.13519032
70	0xbebd9bb9	-0.3703287
71	0x3e073dcd	0.13207169
72	0x3e05f554	0.13081867
73	0x3ea36b5c	0.31917846
74	0xbe37d2f6	-0.17951569
75	0xbed8c2c0	-0.42336082
76	0xbf0ea693	-0.5572292
77	0xbf378231	-0.7168303
78	0xbf1cf98b	-0.6131827
79	0xbd8bd062	-0.06826855
80	0xbd88be12	-0.06676878
81	0xbde933bc	-0.11386821
82	0xbe862355	-0.2619883
83	0x3d3d2f2c	0.046187565
84	0x3e433665	0.19063719
85	0xbe6b3e75	-0.22973044
86	0xbe6f9817	-0.23397861
87	0x3d98ebaf	0.07466828
88	0x3e42648a	0.18983665
89	0xbe8b23f3	-0.27175865
90	0x3e073a0c	0.13205737
91	0xbeaa6f8c	-0.3328823
92	0x3e0409a6	0.12894306
93	0x3e032e5a	0.1281065
94	0x3e8f92b0	0.280416
95	0xbe385ab0	-0.18003345
96	0xbef65089	-0.48108318
97	0xbf0d36e8	-0.55161905
98	0xbf35e189	-0.71047264
99	0xbef4e072	-0.47827488
100	0x3bb3f2a2	0.0054915706
101	0x3c108114	0.008819837
102	0xbc8ebf60	-0.01742524
103	0xbe6682a9	-0.2251078
104	0x3cb8b48d	0.02254703
105	0x3e40eada	0.18839589
106	0xbe4b2fd2	-0.19842461
107	0xbe50cea2	-0.20391324
108	0x3dd344df	0.103158705
109	0x3e2913cd	0.1651146
110	0xbe79f868	-0.24411166
111	0x3e115efb	0.14196388
112	0xbe9b1508	-0.30289483
113	0x3e0c67c3	0.13711457
114	0x3e0ba8df	0.13638638
115	0x3e7d5d1a	0.24742547
116	0xbe256909	-0.16153349
117	0xbecdda77	-0.40205738
118	0xbf10daf0	-0.5658407
119	0xbf32293d	-0.69594175
120	0xbef8b531	-0.48575738
121	0x3c7c8186	0.01541174
122	0x3c7748f7	0.01509308
123	0xbb64b948	-0.0034900475
124	0xbe41b909	-0.18918242
125	0xbb806383	-0.0039181127
126	0x3e3e7692	0.18599918
127	0xbe3a340f	-0.18183921
128	0xbe3f31f1	-0.18671395
129	0x3dc92add	0.09822629
130	0x3e10f1db	0.1415476
131	0xbe6e6292	-0.23279789
132	0x3de21491	0.11039079
133	0xbe8d30d6	-0.2757632
134	0x3dd9ab7f	0.106284134
135	0x3dd7657d	0.10517404
136	0x3e68ed57	0.22746788
137	0xbe21f2a2	-0.15815213
138	0xbea01c2a	-0.31271487
139	0xbef59a67	-0.47969362
140	0xbf38f6c9	-0.72251564
141	0xbeed8375	-0.46389356
142	0x3c7b8434	0.015351344
143	0x3caa3957	0.020779295
144	0x3d574300	0.05255413
145	0xbe1a510e	-0.15069982
146	0xbccebd03	-0.025236612
147	0x3e38db90	0.18052506
148	0xbe243363	-0.16035227
149	0xbe2a5fe8	-0.16638148
150	0x3db84fb2	0.08999576
151	0x3df95ee5	0.12176303
152	0xbe5c595d	-0.21518464
153	0x3da5907b	0.08084198
154	0xbe8038ab	-0.25043234
155	0x3d9a881d	0.07545493
156	0x3d9af3bd	0.07566021
157	0x3e441f59	0.19152583
158	0xbe0fd310	-0.14045358
159	0xbe8a7864	-0.27044976
160	0xbf0ac4c9	-0.5420652
161	0xbede3df2	-0.43406636
162	0xbef54027	-0.47900507
163	0x3dd571f6	0.10422127
164	0x3de5ec4a	0.11226709
165	0x3dd2e8c1	0.102983005
166	0xbdf10dec	-0.117702335
167	0xbd1ede2f	-0.03878611
168	0x3e3e05f5	0.1855696
169	0xbe036086	-0.1282979
170	0xbe0947c3	-0.13406281
171	0x3d70e54a	0.058812417
172	0x3dbb2298	0.091374576
173	0xbe418382	-0.18897822
174	0x3cefeafe	0.029286858
175	0xbe5c1a4f	-0.21494411
176	0x3cc0268e	0.023455884
177	0x3cbd6024	0.023117132
178	0x3e194195	0.14966424
179	0xbdfd5ee7	-0.12371617
180	0xbe80c478	-0.25149894
181	0xbf34a1a2	-0.7055913
182	0xbf383266	-0.719519
183	0xbf113c05	-0.5673221
184	0x3e0bad7d	0.136404
185	0x3e12c2ca	0.14332119
186	0x3d88dd8d	0.066828825
187	0xbdb7ff5e	-0.08984254
188	0xbd551b05	-0.05202772
189	0x3e3ad3d5	0.1824487
190	0xbde49bb7	-0.11162513
191	0xbdefa19a	-0.11700745
192	0x3d30a05a	0.043121673
193	0x3d9f247b	0.0777063
194	0xbe2fb311	-0.17158152
195	0x3c210071	0.009826765
196	0xbe4a550b	-0.19759004
197	0x3b7453f3	0.0037281483
198	0x3b78138f	0.0037853455
199	0x3df56886	0.11982827
200	0xbe1044cf	-0.14088748
201	0xbe52d7d0	-0.20590138
202	0xbf0f37a3	-0.5594427
203	0xbf439ac5	-0.76408035
204	0xbf1be749	-0.6089979
205	0x3e160281	0.14649393
206	0x3e1fa1dd	0.1558909
207	0x3e3b54f5	0.18294127
208	0xbd7d0555	-0.061772663
209	0xbd8956cc	-0.06706008
210	0x3e37c48a	0.17946067
211	0xbdb333c2	-0.087501064
212	0xbdbfccd7	-0.09365242
213	0x3cc7eda1	0.024405302
214	0x3d563f2b	0.052306335
215	0xbe1637ef	-0.14669774
216	0xbc372dea	-0.01118038
217	0xbe2d3a1f	-0.16916703
218	0xbc828f04	-0.015937336
219	0xbc7d804e	-0.015472485
220	0x3db61a21	0.088917024
221	0xbe02097d	-0.12698932
222	0xbe2889c1	-0.16458799
223	0xbf0ba915	-0.54554874
224	0xbf44bff9	-0.7685543
225	0xbf09175b	-0.5355126
226	0x3e1ed74e	0.1551182
227	0x3e274886	0.16336259
228	0x3e53c79f	0.20681618
229	0xbd2593dd	-0.040424217
230	0xbdb535a5	-0.088481225
231	0x3e3994d3	0.18123178
232	0xbd7da8b6	-0.061928473
233	0xbd8c2bed	-0.06844316
234	0x3cdf78b9	0.027279245
235	0x3cdc2400	0.026872635
236	0xbdf7c363	-0.12097814
237	0x3a3a9b2f	0.0007118461
238	0xbe1189c7	-0.14212714
239	0xbb944521	-0.0045248424
240	0xbb8d1313	-0.0043052523
241	0x3d591bcc	0.053005025
242	0xbdf31e90	-0.11871064
243	0xbdf281fd	-0.118411995
244	0xbf1d69a1	-0.614893
245	0xbf3d9ac9	-0.7406431
246	0xbf17ba23	-0.592684
247	0x3e8668e0	0.26251888
248	0x3e8bd819	0.27313307
249	0x3e839b19	0.25704268
250	0xbc9b9d49	-0.018995898
251	0xbdfdb405	-0.123878516
252	0x3e3fdf64	0.1873756
253	0xbd1d4929	-0.03839985
254	0xbd389c75	-0.045071084
255	0x3d2ac9f0	0.04169649

model.0.weight f4 [512, 96]
0	0x3d4da691	0.05020768
1	0x3d4ec401	0.050479893
2	0x3d87ba6d	0.06627355
3	0xbdba879c	-0.09107897
4	0xbdc29a12	-0.09502043
5	0xbc6b0d85	-0.014346485
6	0xbdcfbb6d	-0.101431705
7	0x3c870cac	0.016485535
8	0xbd525d58	-0.05135855
9	0x3d338b67	0.043834116
10	0xbd9f9ade	-0.077932104
11	0x3bf58e00	0.0074937344
12	0xbd8eb1d4	-0.06967512
13	0x3ca1b078	0.019737467
14	0x3d1c53a7	0.038165715
15	0xbd8df3a7	-0.069312386
16	0xbddc6b2b	-0.10762628
17	0x3dcb3c7d	0.099236466
18	0x3d096bde	0.033550136
19	0xbd3b567f	-0.045736786
20	0x3d39a709	0.045325313
21	0x3bfb7334	0.0076736454
22	0xbc81eaa4	-0.015858956
23	0xbca2179f	-0.019786654
24	0xbd6cd66c	-0.057821676
25	0xbd8f7b9e	-0.07006
26	0xbda949f9	-0.08266062
27	0x3ac07b68	0.0014685215
28	0xbe2b6737	-0.16738592
29	0xbc8b43ef	-0.017000167
30	0xbcc6f0d8	-0.024284765
31	0xbdb32e76	-0.08749096
32	0x3d823bbc	0.0635905
33	0xbc0fa048	-0.008766241
34	0xbbcbb503	-0.0062166466
35	0xbd7e6deb	-0.062116545
36	0x3d40a0d6	0.047028385
37	0xbe21a031	-0.15783764
38	0xbd4dcd1c	-0.050244436
39	0x3d57ac46	0.052654527
40	0xbe2a5a65	-0.16636045
41	0xba90fa72	-0.0011060967
42	0xbd99e5b6	-0.07514517
43	0xbd17a467	-0.03702202
44	0x3cc6ed4d	0.024283076
45	0xbe118ac0	-0.14213085
46	0xbe000fc7	-0.12506019
47	0x3d375b9d	0.044765104
48	0xbdc11763	-0.09428289
49	0x3cb622c5	0.022233376
50	0x3d1cd9c2	0.038293608
51	0xbd45da21	-0.048303727
52	0xbd8889e1	-0.06666923
53	0x3aac8e2a	0.0013164927
54	0xbd516cd6	-0.051129185
55	0xbc7e24ba	-0.015511686
56	0x3d557841	0.052116636
57	0xbb8e26dc	-0.0043381285
58	0xbc206a52	-0.009790974
59	0x3bad5cd1	0.0052906056
60	0xbd123681	-0.03569651
61	0xbcdcb520	-0.026941836
62	0xba920c70	-0.0011142623
63	0xbde999ec	-0.114063114
64	0xbd8742de	-0.06604551
65	0x3e0494ba	0.1294736
66	0xbd50f2e0	-0.051012874
67	0x3d9d835c	0.076910704
68	0xbd0744c0	-0.03302455
69	0xbcf9f2f5	-0.030511359
70	0xbd9ef49a	-0.07761498
71	0x3bd3b016	0.0064602
72	0x3d2bf89b	0.041985136
73	0xbd4d53cc	-0.050128743
74	0xbcdee9b8	-0.027211055
75	0xbd3598b5	-0.044335086
76	0x3ddab48a	0.10678966
77	0xbae01387	-0.0017095663
78	0x3d500a42	0.050791033
79	0xbcd844ea	-0.026400048
80	0xbb51d7bf	-0.0032019464
81	0x3c3e4ade	0.011614529
82	0xbcb2f8ba	-0.021847118
83	0xbd82ec52	-0.06392731
84	0x3cce9d97	0.025221629
85	0x3cf73b57	0.030179663
86	0xbcf532b1	-0.029931398
87	0x3d5e1d86	0.054227374
88	0xbd011077	-0.031509843
89	0xbcd2168f	-0.025645522
90	0xbc93b641	-0.018031241
91	0xbd0d4603	-0.034490597
92	0xbd6b3bcb	-0.05743007
93	0xbd53754f	-0.051625546
94	0xbd688ed1	-0.056776825
95	0xbdc10456	-0.09424655
96	0x3df3dd3a	0.1190743
97	0xbd7329ab	-0.05936591
98	0xbe36087d	-0.17776676
99	0x3a7a621a	0.00095513614
100	0xbde16a77	-0.11006635
101	0xbdf605da	-0.12012835
102	0xbe1da3ef	-0.15394567
103	0xbe649fd7	-0.22326599
104	0xbe031275	-0.1280001
105	0xbe017020	-0.12640429
106	0xbe04f0a4	-0.12982422
107	0x3d33be49	0.043882642
108	0x3d158d70	0.03651184
109	0xbd02dbb7	-0.031947818
110	0xba238b8d	-0.0006238751
111	0x3d3818d0	0.044945538
112	0x3dc3de6a	0.095639065
113	0xbd479616	-0.048727117
114	0x3ceb0c94	0.028692521
115	0xbbaa1235	-0.0051901587
116	0x3b47bf94	0.003047918
117	0x39c18b41	0.0003691558
118	0x3d05c9b1	0.03266305
119	0xb9e0e9a3	-0.00042898682
120	0x3d1d6734	0.0384285
121	0xbca268b0	-0.01982531
122	0xbc865f13	-0.016402757
123	0xbcfee1d1	-0.031113537
124	0x3cc007b2	0.02344117
125	0x3d24ccf3	0.040234517
126	0x3bdbf2ec	0.006712308
127	0x3d915488	0.07096201
128	0x381ab319	3.688326e-05
129	0x3d599fa8	0.053130776
130	0x3ca29bfb	0.019849768
131	0x3d7263f0	0.05917734
132	0xbb500d13	-0.0031746074
133	0x3c79bb15	0.015242358
134	0x3b79d495	0.0038121094
135	0xbd11c85d	-0.035591472
136	0x3c4bfc8a	0.012450347
137	0xbd18335b	-0.03715835
138	0xbcd41b45	-0.02589191
139	0xbd565c17	-0.052333917
140	0xbd098530	-0.033574283
141	0xbd46e775	-0.04856058
142	0xbcf9808a	-0.0304568
143	0xbbdb6dd8	-0.006696444
144	0xbcf074f5	-0.029352644
145	0xb983819e	-0.0002508284
146	0x3c257fe4	0.010101292
147	0x3c5af983	0.013365152
148	0x3d1187d3	0.035529923
149	0x3c863cac	0.016386352
150	0xbb6b4e7d	-0.0035904937
151	0xbc77f731	-0.015134619
152	0xbc8b589f	-0.017010031
153	0xbd2bbea9	-0.041929875
154	0xbdd1f321	-0.10251451
155	0xbda09636	-0.078411505
156	0xbdc903ce	-0.09815179
157	0xbda3ba27	-0.0799449
158	0xbd6994d6	-0.057026707
159	0xbd25be64	-0.040464774
160	0x3cfcab6b	0.030843457
161	0xbcfec129	-0.031097965
162	0xbcad545d	-0.021158392
163	0xbc9494e4	-0.018137403
164	0xbc64afb7	-0.013957909
165	0xba014904	-0.00049318396
166	0xbd6ef707	-0.058341052
167	0xbc9cd550	-0.019144684
168	0xbd872a5d	-0.06599877
169	0xbd163471	-0.036671106
170	0xbd12117e	-0.035661213
171	0xbd84fd64	-0.06493643
172	0x3abde795	0.0014488572
173	0xbcc3ac42	-0.02388585
174	0xbdd3e5bb	-0.10346552
175	0xbce5449f	-0.027986823
176	0xbba42d3f	-0.0050102766
177	0xbdd24cb1	-0.10268534
178	0x3c2276ee	0.00991605
179	0xbdd4c703	-0.10389521
180	0xbbc22e3c	-0.0059259217
181	0x3c1ec480	0.009690404
182	0xbd0466c5	-0.03232457
183	0x3d104064	0.035217658
184	0x3d2fb9b5	0.042901713
185	0xbda1056d	-0.07862363
186	0x3d0360cb	0.03207473
187	0x3d59a8f0	0.053139627
188	0x3d33bcbd	0.043881167
189	0x3d7221da	0.059114315
190	0xbe3478d3	-0.17624216
191	0x3e2050ad	0.15655775
192	0x3dda5e0f	0.106624715
193	0xbdd31d5b	-0.103083335
194	0x3e37170c	0.17879885
195	0xbcfc9837	-0.0308343
196	0x3dceb12f	0.10092389
197	0xbd5fc940	-0.054635286
198	0xbc82a915	-0.015949765
199	0x3d83a5e7	0.06428128
200	0xbda05350	-0.078283906
201	0xbdac1364	-0.08402136
202	0x3d211fb4	0.039336875
203	0xbdc3366b	-0.09531864
204	0xbdb357d9	-0.0875699
205	0xbd9cfd14	-0.07665458
206	0xbc39b76b	-0.011335234
207	0xbdcd1290	-0.10013306
208	0xbdee79ae	-0.11644302
209	0xbe023bf7	-0.12718187
210	0xbd8f89b7	-0.07008689
211	0xbd848bcb	-0.06471976
212	0xbd67faef	-0.056635793
213	0xbe281240	-0.16413212
214	0xbd0635df	-0.03276622
215	0xbdd1afa6	-0.102385804
216	0x3d0799ef	0.033105787
217	0xbd7a1434	-0.061054423
218	0x3d618403	0.055057537
219	0xbbd7dc3b	-0.006587533
220	0xbd1b5c1e	-0.037929647
221	0x3d041cad	0.03225391
222	0xbd049edf	-0.032378074
223	0x3b159f8b	0.002283069
224	0xb99053dd	-0.00027528303
225	0x3c535420	0.012898475
226	0xbcf1c6c4	-0.029513724
227	0x3d39a306	0.045321487
228	0xbd3110c7	-0.04322889
229	0xbc8ef56e	-0.017451014
230	0xbd69e6a5	-0.057104725
231	0x3d10aeb6	0.035322867
232	0x3a23fea9	0.0006255904
233	0xbdcdef4c	-0.10055408
234	0xbd51b087	-0.05119374
235	0xbd9084df	-0.07056593
236	0xbd061469	-0.03273431
237	0xbcb800dc	-0.022461347
238	0xbd3b0c04	-0.045665756
239	0xbe031e52	-0.12804535
240	0xbd50aab2	-0.050944038
241	0xbdb55db3	-0.08855762
242	0xbd5e4976	-0.054269277
243	0xbd95b55b	-0.073099814
244	0xbd931323	-0.071813844
245	0x3d1f18d3	0.038842034
246	0x3cb0ca17	0.021580739
247	0xbd6af027	-0.057357933
248	0x3c977310	0.018487483
249	0xbd64fb35	-0.055903632
250	0xbdd4015f	-0.10351824
251	0xbde75f2c	-0.112974495
252	0xbd5dff7c	-0.054198727
253	0xbdb582a8	-0.08862811
254	0x3d165dd4	0.036710575
255	0x3d5282e9	0.051394377

model.0.bias f4 [512]
0	0xbe82e334	-0.25563967
1	0xbf1ce204	-0.6128237
2	0x3d726d92	0.059186526
3	0xbe9643f8	-0.2934873
4	0x3ce46e59	0.02788465
5	0xbdeee502	-0.116647735
6	0xbe97a97b	-0.2962149
7	0xbe928e75	-0.2862431
8	0xbec033ef	-0.37539622
9	0xbeeb3ba2	-0.45943934
10	0xbeda4f77	-0.42638752
11	0x3c22fc6e	0.009947879
12	0xbed87eb6	-0.42284173
13	0xbe802380	-0.25027084
14	0xbdb40784	-0.08790496
15	0x3da3b7de	0.07994054
16	0xbe2c339f	-0.16816567
17	0xbf24914d	-0.6428421
18	0xbf606660	-0.8765621
19	0xbe991c47	-0.29904386
20	0xbe8f11ca	-0.2794326
21	0xbeb72430	-0.35769796
22	0xbf2cee4d	-0.6755112
23	0x3ea98815	0.33111635
24	0xbec802fd	-0.3906478
25	0xbf196041	-0.59912497
26	0xbe8a4054	-0.27002203
27	0xbf3b149f	-0.7307834
28	0xbec2d059	-0.38049582
29	0xbf58310b	-0.84449834
30	0xbf051d6d	-0.51998025
31	0xbf553c1b	-0.8329484
32	0xbef07d44	-0.4697057
33	0xbf1e498e	-0.61830986
34	0x3b6ee67f	0.0036453304
35	0xbed78c33	-0.4209915
36	0xbedb0fee	-0.4278559
37	0xbf29e123	-0.66359156
38	0xbed93f38	-0.42431045
39	0xbe9d77c6	-0.30755442
40	0x3d8b23d0	0.0679394
41	0xbf4ef3f2	-0.8084098
42	0xbea9ae15	-0.33140627
43	0xbea0b464	-0.31387627
44	0xbf2a29f3	-0.6647026
45	0xbe9bde5e	-0.3044309
46	0xbef06cbb	-0.46957955
47	0xbf3d1912	-0.7386638
48	0xbf2e6f23	-0.6813833
49	0x3ca0214d	0.019547129
50	0xbe6ee438	-0.23329246
51	0xbef8e175	-0.4860951
52	0xbf2d5db3	-0.677211
53	0xbf0f9837	-0.56091636
54	0xbd1f1c9f	-0.038845655
55	0xbf069aab	-0.52579755
56	0xbe97a52e	-0.2961821
57	0xbe85d149	-0.26136234
58	0xbe99c2aa	-0.3003133
59	0xbedf5fae	-0.43627685
60	0xbf55df32	-0.83543694
61	0xbe838cfa	-0.25693494
62	0xbe108f1e	-0.14117095
63	0xbca76d9d	-0.02043801
64	0xbf1b79d4	-0.6073277
65	0xbe92ad60	-0.286479
66	0xbec4e5ca	-0.38456565
67	0xbf1b1356	-0.6057638
68	0xbee6828d	-0.45021477
69	0xbf33baf5	-0.7020715
70	0xbb0e0c01	-0.0021674635
71	0xbefdfb98	-0.49606013
72	0xbf5e5f33	-0.8686401
73	0xbeaaa195	-0.33326402
74	0xbe7d0cad	-0.24711867
75	0xbebad798	-0.3649261
76	0xbf163390	-0.5867243
77	0xbdff585e	-0.124680266
78	0xbeb107ca	-0.34576255
79	0xbf054ddb	-0.52071923
80	0xbf4720ff	-0.77784723
81	0xbde3066e	-0.11085211
82	0xbf2dc6a3	-0.6788122
83	0xbe12d68a	-0.14339653
84	0xbd8593cf	-0.06522333
85	0xbf12c81c	-0.5733659
86	0x3e811f28	0.25219083
87	0xbf0e4bb5	-0.5558427
88	0x3e8b4568	0.2720139
89	0xbe841715	-0.2579886
90	0xbe091b86	-0.13389406
91	0xbe814e46	-0.2525503
92	0xbedd740e	-0.43252605
93	0x3d62f64d	0.055410672
94	0xbe16b021	-0.14715625
95	0xbf335588	-0.70052385
96	0xbfa54f2c	-1.2914786
97	0xbed59f13	-0.41722926
98	0xbf1d8b41	-0.6154061
99	0xbecce0a3	-0.40015134
100	0x3c48bc68	0.012251951
101	0xbea9c839	-0.3316057
102	0xbed027d8	-0.40655398
103	0xbf4eb018	-0.8073745
104	0xbf372162	-0.71535313
105	0xbf4a1e87	-0.7895283
106	0xbe874fac	-0.26427972
107	0xbee77b40	-0.4521122
108	0xbf09421d	-0.53616506
109	0xbed6def2	-0.4196697
110	0xbeceda89	-0.40401104
111	0xbee23f16	-0.44188756
112	0xbe6ea83b	-0.23306362
113	0xbee6a2d3	-0.450461
114	0xbf1548b6	-0.58314073
115	0xbf08a722	-0.53380024
116	0xbf01a9ac	-0.50649524
117	0xbf38898e	-0.7208489
118	0xbed80451	-0.42190793
119	0xbf2b5841	-0.6693154
120	0xbe86b792	-0.26311928
121	0xbef47368	-0.47744298
122	0xbee1cb2b	-0.44100317
123	0xbf2a5e89	-0.665505
124	0xbee10719	-0.43950728
125	0x3e443c86	0.19163713
126	0xbd622a22	-0.055215962
127	0xbf3cd35d	-0.73760015
128	0xbef7aae4	-0.48372567
129	0xbe7e6625	-0.24843653
130	0xbe4932d4	-0.19648296
131	0xbe2b8337	-0.16749273
132	0xbf5497bb	-0.8304402
133	0xbf31d8b7	-0.69471306
134	0xbeeddf14	-0.46459258
135	0xbf216480	-0.63043976
136	0xbe455442	-0.19270423
137	0xbebdad8c	-0.37046468
138	0xbed4c272	-0.415546
139	0xbf2021c1	-0.62551504
140	0xbed7e96d	-0.42170277
141	0xbee5710b	-0.44812807
142	0xbe683217	-0.22675358
143	0xbef7f2d4	-0.4842745
144	0xbf6ba362	-0.9204618
145	0xbe89b905	-0.2689897
146	0xbef414e7	-0.47672197
147	0xbed55102	-0.41663367
148	0xbebd1c4d	-0.36935654
149	0xbee77d78	-0.45212913
150	0xbf26d2dc	-0.65165496
151	0xbe740411	-0.23829676
152	0xbf0dbcb9	-0.5536609
153	0x3dfa13a2	0.12210776
154	0xbef08427	-0.46975824
155	0xbf4736e2	-0.7781812
156	0xbf557089	-0.8337484
157	0xbf04fdf2	-0.5194999
158	0xbf147ee1	-0.580061
159	0xbf7d821f	-0.99026674
160	0xbf81aa34	-1.0130067
161	0x3b3b32d9	0.0028564243
162	0xbeaf1d50	-0.3420205
163	0xbe8c786c	-0.27435625
164	0xbf275885	-0.65369445
165	0xbebe25a3	-0.3713809
166	0xbeaa7051	-0.33288816
167	0xbf5ec884	-0.8702471
168	0x3e58704b	0.21136586
169	0xbe48d24d	-0.19611473
170	0xbf191be1	-0.59808165
171	0xbf0377f9	-0.5135494
172	0xbedb87d2	-0.4287706
173	0xbec60851	-0.3867822
174	0xbee05d6c	-0.43821275
175	0xbebdee54	-0.37095892
176	0xbe6918b7	-0.22763334
177	0xbd6f9208	-0.058488876
178	0xbedaea7d	-0.42757025
179	0x3e5be262	0.21473077
180	0xbf0dc22f	-0.55374426
181	0xbf22baf4	-0.6356652
182	0xbec7df89	-0.3903773
183	0x3dbc309e	0.091889605
184	0xbec3735b	-0.38173947
185	0xbed42435	-0.41433874
186	0x3e66e1b7	0.22547041
187	0xbee56808	-0.44805932
188	0xbef4bed8	-0.47801852
189	0xbee81817	-0.4533088
190	0xbf13d0e4	-0.57740617
191	0xbe60bf4d	-0.21947975
192	0xbf26187b	-0.64881104
193	0xbf0f59f0	-0.5599661
194	0x3e9ac348	0.30227113
195	0xbe49ed1d	-0.19719358
196	0xbf1fe71a	-0.6246201
197	0xbf0712d9	-0.52763134
198	0xbea67118	-0.3250816
199	0xbf3ae11f	-0.7299976
200	0xbeecc1a0	-0.46241474
201	0xbef13245	-0.47108665
202	0xbf63a4fa	-0.8892361
203	0xbebd63b2	-0.36990124
204	0xbf1dfc1f	-0.6171283
205	0xbd43e3bf	-0.047824617
206	0xbece8064	-0.4033233
207	0xbedd19e1	-0.43183807
208	0xbe4b602d	-0.19860907
209	0xbe37b2df	-0.17939328
210	0xbf9b6cc9	-1.2142574
211	0xbf33289a	-0.6998383
212	0x3cae948d	0.021311069
213	0xbd599250	-0.05311805
214	0xbf5c48c1	-0.86048514
215	0xbea74b5c	-0.32674682
216	0xbf7a52a8	-0.97782373
217	0xbe9b3643	-0.30314836
218	0xbee1577d	-0.4401206
219	0x3d01130b	0.0315123
220	0x3e001a45	0.12510021
221	0xbe89c64f	-0.2690911
222	0x3c2fa734	0.010721017
223	0xbea73c25	-0.32663074
224	0xbf23fb6d	-0.6405552
225	0xbe99ae23	-0.30015668
226	0xbead8ab2	-0.3389488
227	0xbe88a7ca	-0.26690513
228	0x3e8b6147	0.27222654
229	0xbee32cc2	-0.44370085
230	0xbe77a42b	-0.24183719
231	0xbec69fa4	-0.3879367
232	0xbf44f8aa	-0.7694193
233	0xbe7766a7	-0.24160253
234	0xbf5c1ad6	-0.8597845
235	0x3df44452	0.119270936
236	0xbf256365	-0.6460479
237	0xbf1d2165	-0.6137908
238	0xbe1059aa	-0.14096704
239	0xbead391e	-0.3383264
240	0xbf513fb8	-0.8173785
241	0xbf15a35e	-0.58452404
242	0xbebbfdbc	-0.3671702
243	0xbe9bc4fc	-0.30423725
244	0xbeccd896	-0.40008992
245	0xbf54cbe2	-0.831236
246	0xbf08e642	-0.53476346
247	0xbf244317	-0.6416487
248	0xbdaff625	-0.0859187
249	0xbefacf25	-0.48986164
250	0xbeb456f2	-0.35222584
251	0xbf1fbd28	-0.62398005
252	0xbf509482	-0.81476605
253	0xbea4596d	-0.32099476
254	0xbf0a9c51	-0.5414477
255	0xbea5b053	-0.32361087

model.2.weight f4 [96, 512]
0	0x3c3588f9	0.01108002
1	0x3caf48a7	0.021396948
2	0x3daa69fb	0.083209954
3	0xbbaf66b2	-0.0053528184
4	0xbc8d3d93	-0.017241275
5	0xbd7357f3	-0.059410047
6	0x3d902fba	0.07040353
7	0x39add474	0.0003315542
8	0xbcde02a9	-0.027100878
9	0xbb9bc359	-0.004753512
10	0x3bf488e2	0.0074626068
11	0xbd14ce35	-0.036329467
12	0x3d6d451b	0.057927232
13	0xbd124b75	-0.035716493
14	0x3d53484f	0.05158263
15	0xbb8527cc	-0.004063582
16	0x3cbb36ef	0.022853343
17	0xbc921993	-0.01783446
18	0xba8c6326	-0.0010710701
19	0x3d7c8fcf	0.061660584
20	0xbcbb8988	-0.022892728
21	0xbc4516be	-0.012029348
22	0xbc33640c	-0.010949146
23	0x3ca7c9a1	0.020481886
24	0xbc5dffb5	-0.013549735
25	0x3c371626	0.011174714
26	0x3c1f3380	0.009716868
27	0x3c2c4d52	0.0105164815
28	0xbbea93fe	-0.0071587553
29	0xbd0eb1ff	-0.03483772
30	0x3dba3f18	0.090940654
31	0xbca329a2	-0.019917313
32	0x3d264645	0.040594358
33	0x3bffd8c8	0.0078078248
34	0x3b29e013	0.0025920912
35	0xbcb96f9d	-0.02263623
36	0x3bd3fb8a	0.006469195
37	0x3cae428d	0.021271968
38	0xbcea7b7f	-0.02862334
39	0xbc5eebb9	-0.013606005
40	0x3ca517d3	0.020152962
41	0xbd3acacd	-0.045603562
42	0xbcb63b25	-0.022245
43	0x3c88ca28	0.016697958
44	0x3cc181f4	0.023621537
45	0xbca42cd2	-0.020040903
46	0xbd32b8d2	-0.04363329
47	0x3c88b853	0.016689455
48	0x3d379842	0.04482294
49	0xbc68c780	-0.014207721
50	0xbc4387e2	-0.011934252
51	0x3d8e6dbc	0.06954524
52	0x3c24f397	0.010067842
53	0xbd2ed222	-0.042680867
54	0xbbc7bd9b	-0.006095601
55	0x3ccdc11d	0.025116498
56	0x3e0d64bd	0.1380796
57	0xbd803c8b	-0.06261548
58	0x3c6ce105	0.014457946
59	0x3d14da6c	0.036341116
60	0xbc163f9c	-0.009170439
61	0x3d5ddf56	0.054168068
62	0xbd861607	-0.0654717
63	0xbb2b9e27	-0.0026186795
64	0x3c8e0c3f	0.017339824
65	0x3dac5068	0.08413774
66	0xbd795a64	-0.06087722
67	0x3c052a0e	0.008127702
68	0xbca5b665	-0.020228574
69	0x3d31b01e	0.04338085
70	0x3c955497	0.018228812
71	0xbd961a94	-0.07329288
72	0xbcf189bd	-0.029484624
73	0x3d9c18bd	0.07621906
74	0xbd413de9	-0.047178183
75	0xbd8fce09	-0.0702172
76	0xbcb9ac89	-0.022665279
77	0xbac6d8c3	-0.0015170801
78	0xbd19cb22	-0.03754724
79	0xbc81ea5e	-0.015858825
80	0xbd2cddc8	-0.042203695
81	0xbbe67fef	-0.007034294
82	0xbacd8590	-0.0015680064
83	0x3a6486c8	0.0008717594
84	0x3c4a59a9	0.012350478
85	0xbbfc0613	-0.007691154
86	0xbd1b38de	-0.03789603
87	0x3c502d4c	0.012706112
88	0xbccf133f	-0.025277732
89	0xba55385e	-0.00081337045
90	0xbcbc3ab1	-0.022977205
91	0x3c7dcfda	0.01549145
92	0xbc9425ef	-0.018084494
93	0xbd43db16	-0.04781636
94	0xb8c6eaf2	-9.485138e-05
95	0xbb9a28ef	-0.0047045867
96	0x3d04d87a	0.03243301
97	0xbcc412e1	-0.023934783
98	0xbc1138cf	-0.008863642
99	0xbd37b13c	-0.04484676
100	0x3e2a53b1	0.16633488
101	0x3c7efe5f	0.0155635765
102	0xbcd3dc25	-0.025861809
103	0x3c2a15a9	0.010381141
104	0xbd273635	-0.04082318
105	0x3d2f38e6	0.042778872
106	0xbd25cd25	-0.040478844
107	0xbd1f235b	-0.038852077
108	0x3cafbc51	0.021452101
109	0xbc4800bf	-0.012207209
110	0xbc198163	-0.009369227
111	0xbcca7915	-0.02471594
112	0xbd3e28c3	-0.046425592
113	0x3d2b9839	0.041893218
114	0x3d4fe256	0.05075296
115	0x3cc21a1b	0.023694089
116	0xbc9e9c53	-0.01936165
117	0xbc835593	-0.016032016
118	0xbcfa64ab	-0.03056558
119	0xbceb15ec	-0.028696977
120	0x3c74fd49	0.014952966
121	0x3a754328	0.00093560154
122	0xbce500b1	-0.027954431
123	0x3d3f944b	0.046772283
124	0x3b82baa4	0.0039895345
125	0x3c2f0b75	0.010683884
126	0xbc59ac31	-0.013285683
127	0x3d8b8a5f	0.068135016
128	0x3d03a024	0.032135144
129	0xbd0bebb8	-0.034160346
130	0x3c70418f	0.014664068
131	0xbd0db726	-0.034598492
132	0x3d22cbca	0.03974513
133	0xbca7e97e	-0.02049708
134	0xbcdc2c0a	-0.026876468
135	0xbc8effd1	-0.017455967
136	0x3d376883	0.044777405
137	0x3d5f960d	0.05458646
138	0xbae9edea	-0.0017847393
139	0x3c871603	0.016489988
140	0x3c8fae65	0.017539212
141	0x3d138c05	0.036022205
142	0xbd168560	-0.03674829
143	0xbcd6fb61	-0.026242914
144	0xbd1f9673	-0.03896184
145	0xbd75e3aa	-0.06003157
146	0x3c83ca02	0.016087536
147	0xbce32aa9	-0.027730303
148	0xbd57ad1d	-0.052655328
149	0xbd10c70e	-0.035346083
150	0x3ba99839	0.005175617
151	0x3d3065a6	0.04306569
152	0x3d022f05	0.031783123
153	0x3df642f3	0.12024488
154	0xbce0a283	-0.027421242
155	0xbd16893a	-0.036751963
156	0xbd89ef43	-0.06735089
157	0xbcac707a	-0.021049727
158	0xbc028fd8	-0.007968865
159	0xbc1c2ef3	-0.009532678
160	0x3d315f45	0.043303747
161	0x38525db4	5.015517e-05
162	0xbd3af290	-0.045641482
163	0xbcf8fe86	-0.030394804
164	0x3d481db7	0.048856463
165	0xbd2ca803	-0.042152416
166	0xbd33ccc5	-0.043896455
167	0x3c948c46	0.018133294
168	0xbd03f996	-0.032220446
169	0x3cdcf35d	0.026971513
170	0xbc19c94c	-0.009386372
171	0x3cdb6492	0.026781354
172	0x3bab1f5c	0.005222244
173	0x3c7231c1	0.01478237
174	0xbd0643ba	-0.032779433
175	0xbd828924	-0.06373814
176	0x3b1a433d	0.0023538612
177	0xbc5aef9b	-0.01336279
178	0x3d817a67	0.063221745
179	0xba80fb90	-0.0009840596
180	0xbbc7e4f6	-0.0061002923
181	0xbd702358	-0.058627456
182	0x3c636cf3	0.013880956
183	0x3d8a18be	0.067430004
184	0xbb88e7c9	-0.0041780216
185	0xbcacec3e	-0.021108743
186	0xbbea9b74	-0.0071596447
187	0xbc1f1f44	-0.009712044
188	0xbc702d6f	-0.01465927
189	0xbb199770	-0.002343621
190	0x3bd1879f	0.006394341
191	0xbc6893aa	-0.014195362
192	0x3ccf871c	0.02533298
193	0x3d9dacd0	0.07698977
194	0xbb0edf46	-0.0021800562
195	0xbb7dc448	-0.003872173
196	0x3c4a95b1	0.012364791
197	0x3d06ba0a	0.032892264
198	0x3d3de13b	0.046357375
199	0x3d41d63c	0.04732345
200	0xbcb6f644	-0.022334225
201	0xbd1aa47b	-0.037754517
202	0x3d2c99ba	0.042138793
203	0xbcf4aada	-0.029866625
204	0xbcbc07cd	-0.022952938
205	0x3ccbc2f5	0.024873236
206	0x3d3bb717	0.045828905
207	0xbcec3e11	-0.02883819
208	0x3b0edeab	0.00218002
209	0x3c534e45	0.012897079
210	0xbcc691d0	-0.02423945
211	0xbc686520	-0.014184266
212	0x3ccc309a	0.024925519
213	0xbd65d94b	-0.05611543
214	0x3c7a5c66	0.015280819
215	0xbce45c81	-0.02787614
216	0x3d01588f	0.031578597
217	0xbd927671	-0.07151497
218	0xbb99aaaf	-0.0046895365
219	0x3cad63dd	0.021165783
220	0xbb968e1d	-0.004594578
221	0x3d9a33a3	0.0752938
222	0x3e1e18d8	0.15439165
223	0xba47faea	-0.00076286367
224	0x3d707ecf	0.058714684
225	0x3b8c8ca9	0.004289229
226	0xbd720623	-0.059087884
227	0x3c89da25	0.016827652
228	0xbd8f21aa	-0.06988843
229	0x3e0063d7	0.12538086
230	0xbceb8f5c	-0.028754883
231	0xbc748a68	-0.014925577
232	0x3bc1b4b7	0.0059114355
233	0xbc8f40d4	-0.017486967
234	0x3c9d4708	0.01919891
235	0xbcc45286	-0.023965131
236	0xbbbe4216	-0.005806218
237	0xbc828090	-0.015930444
238	0xbc8c1b9b	-0.017103007
239	0xbc5e240a	-0.013558397
240	0xbcc27c82	-0.02374101
241	0xbc73cec1	-0.014880837
242	0x3ca8408b	0.020538589
243	0x3c0e45fc	0.008683678
244	0x3df82f74	0.12118426
245	0x3d6b83fd	0.05749892
246	0xb89a4cc3	-7.35759e-05
247	0xbca2998b	-0.019848606
248	0xbc096e1f	-0.008388071
249	0xbd510d74	-0.05103822
250	0x3cd37182	0.02581096
251	0x3be59181	0.007005871
252	0x3a0f2e80	0.0005461946
253	0xbd6a669b	-0.05722676
254	0xbd2a96d2	-0.04164774
255	0xbb95341d	-0.0045533315

model.2.bias f4 [96]
0	0xbcd1aa99	-0.025594043
1	0x3c232ce2	0.009959431
2	0x3d02a946	0.031899713
3	0x3cf4fa76	0.029904585
4	0x3d67e1ba	0.056611754
5	0x3d3af215	0.045641024
6	0x3d1c2bff	0.038127895
7	0x3d53a5c5	0.051671762
8	0x3d5e1bf0	0.054225862
9	0x3d507609	0.050893817
10	0x3d919a62	0.07109524
11	0x3da1431a	0.07874127
12	0x3d9fc815	0.078018345
13	0x3d901077	0.070343904
14	0x3da9d69c	0.082928866
15	0x3d8adc6f	0.067803256
16	0x3db479ff	0.088123314
17	0x3db6abcb	0.08919486
18	0x3de346de	0.11097501
19	0x3daca30d	0.08429537
20	0x3dd81d59	0.105524726
21	0x3defdd4a	0.117121294
22	0x3e0123a3	0.1261125
23	0x3e079134	0.13238984
24	0x3e001546	0.12508115
25	0x3e156c08	0.14591992
26	0x3e0e7132	0.13910368
27	0x3e0f6487	0.14003192
28	0x3e2b8515	0.16749986
29	0x3e1b1cbe	0.15147683
30	0x3e2c96a2	0.16854337
31	0x3e134f99	0.14385833
32	0x3e25c895	0.16189797
33	0x3e233479	0.15937985
34	0x3e2f8dd8	0.17143953
35	0x3e3cbc23	0.18431143
36	0x3e221678	0.15828884
37	0x3e2e9e05	0.17052467
38	0x3e2da939	0.16959085
39	0x3e3ea152	0.18616226
40	0x3e39cdd6	0.18144926
41	0x3e3c3db7	0.18382917
42	0x3e31b565	0.17354353
43	0x3e408a62	0.18802789
44	0x3e4512dd	0.19245477
45	0x3e3555d9	0.1770853
46	0x3e4318fe	0.19052503
47	0x3e52b54b	0.2057697
48	0x3e42ce7b	0.19024079
49	0x3e483e67	0.19555055
50	0x3e335b7a	0.17515364
51	0x3e3e6f28	0.1859709
52	0x3e391855	0.18075688
53	0x3e37790c	0.1791727
54	0x3e327d50	0.17430615
55	0x3e3a1e24	0.1817556
56	0x3e1e8b2f	0.15482782
57	0x3e22df09	0.15905394
58	0x3e2bd872	0.16781786
59	0x3e2dd37a	0.16975203
60	0x3e2276f4	0.1586569
61	0x3e38ffb6	0.18066296
62	0x3e366fd9	0.17816104
63	0x3e275838	0.16342247
64	0x3e262276	0.16224083
65	0x3e2f6d84	0.1713162
66	0x3e1389b2	0.14407995
67	0x3e1c8ca7	0.1528803
68	0x3e23212c	0.15930623
69	0x3e0bf644	0.13668162
70	0x3e0ca51e	0.13734862
71	0x3e2b8f73	0.1675394
72	0x3e0747bd	0.1321096
73	0x3e16eadf	0.14738034
74	0x3e0c3d18	0.1369518
75	0x3e164664	0.1467529
76	0x3e023c40	0.12718296
77	0x3e0a2a09	0.13492598
78	0x3e1e954f	0.15486644
79	0x3e0f92ca	0.1402084
80	0x3e0f7840	0.14010715
81	0x3e16d0c7	0.1472808
82	0x3e19769c	0.14986652
83	0x3e11e146	0.14246091
84	0x3e0d2e04	0.13787085
85	0x3e18aa4c	0.14908713
86	0x3e14e12c	0.14539021
87	0x3e2c030a	0.16798034
88	0x3e09f343	0.13471703
89	0x3e0b2f15	0.13592179
90	0x3e1279a0	0.14304209
91	0x3e0632af	0.13105272
92	0x3e1ef3e1	0.1552272
93	0x3e39bb5f	0.18137883
94	0x3e2a7782	0.16647151
95	0x3e30b55b	0.17256682
