checkpoints/LSTM_seq96_pred96_seed2024/checkpoint.pth (torch, 852130 bytes, 10 tensors)

lstm.weight_ih_l0 f4 [512, 21]
-0.050231595 0.09463152 0.122306496 -0.05422862 -0.11472847 0.0069766594 -0.017638255 0.046167403
0.032102317 0.078817345 -0.103289984 -0.018451454 -0.14164503 -0.10605308 0.086623766 -0.02928458
0.019029241 0.12533797 0.14192675 0.08095878 0.008584103 0.14172602 0.032303885 0.032758705
-0.06647899 -0.04030156 -0.03475551 0.04048323 -0.047453046 -0.08761604 -0.047594517 -0.06894894
0.29887518 0.21511498 -0.113286026 -0.06896421 -0.023817992 -0.07092982 -0.035368044 -0.02161426
-0.05053246 -0.10234695 0.08805479 -0.0307355 0.0059110248 -0.083808616 0.05444096 0.077723645
-0.054784287 0.02607144 0.023243977 -0.061105266 0.057140775 -0.06790678 -0.07869503 -0.0853449
-0.01720992 -0.052748077 0.025978662 0.048311155 -0.10486103 -0.04564238 0.07056121 -0.113254264
-0.04846589 0.07841428 -0.10403993 0.014338469 0.0035531134 0.046610806 -0.027189737 0.087842315
0.123419985 -0.020308783 -0.07397926 -0.054926008 0.053277545 -0.026403086 0.1282751 -0.058415513
-0.005540949 0.01974274 -0.01763871 -0.097820505 0.10290088 0.059800375 -0.010628274 -0.003469983
-0.18135756 -0.009183075 -0.072589226 0.081326135 -0.022982191 -0.110187836 -0.050259832 -0.07755689
-0.0066201664 -0.20488593 -0.16838883 0.057172853 0.029978944 0.07542649 0.03353035 -0.034465276
-0.08981315 0.08651462 -0.02484719 0.055106033 0.046403445 -0.01444649 0.0013155274 0.057584614
0.082115926 -0.019871583 0.0911798 -0.058820933 0.06895603 0.0881897 0.38689727 -0.08814342
0.043043658 -0.049178965 -0.054411393 -0.07871904 0.053165834 0.11552637 0.06830356 0.063348256
-0.0533594 0.053211547 0.08142841 0.06967219 0.0049954127 0.09590477 0.117610306 0.045717582
0.100581184 -0.03805076 0.060224835 0.020300005 0.0146477185 -0.013544438 -0.009798679 -0.052375045
-0.07580282 -0.009826707 -0.041828074 0.019660164 0.0114895785 0.03873425 -0.09705364 -0.1065953
-0.00092152285 -0.06825274 0.009707123 -0.0048539336 -0.09051488 0.07682698 0.16789986 0.1033312
-0.14112243 0.07343103 -0.0801068 -0.060523532 0.014816004 0.055883393 -0.09443219 -0.009897282
-0.048963252 0.0197193 -0.004386546 -0.03202046 0.057110924 0.06996472 -0.05123742 0.1103533
0.097504735 -0.02580503 0.06459481 0.05668204 0.09225698 0.378206 0.11626159 0.11886875
0.024702404 -0.026480777 0.11127737 0.09575317 0.05270818 0.10432073 -0.1136625 -0.011907797
-0.0716818 -0.030304477 0.060202844 -0.030349147 0.060388904 -0.015731744 -0.027144292 0.14886294
-0.07037106 0.03974596 0.13675389 -0.11195285 -0.12914144 -0.021432437 0.097685136 -0.029291168
-0.10277374 -0.080962494 -0.011642403 0.007402809 -0.019394688 -0.07407589 -0.00026849203 -0.058638517
0.053012595 -0.011176072 0.04546692 -0.013702251 -0.054130055 0.059671223 -0.09126651 -0.053183246
0.042245407 0.13611016 0.100728676 0.11915895 0.03159481 0.0072585964 0.06538015 0.06742499
0.041654103 -0.07507518 0.11385201 0.07528068 -0.0111254295 0.070026495 -0.01412871 0.030270187
0.08773965 -0.046008404 0.15880765 0.024415135 -0.0564919 0.234239 0.27402526 -0.08156182
0.07130356 -0.01654567 -0.06920013 -0.17285107 0.04489918 -0.042234022 0.06368088 0.09255565
00000000: a5bf 4dbd 2cce c13d d47b fa3d d41e 5ebd
00000010: c3f6 eabd 769c e43b 1a7e 90bc 081a 3d3d
00000020: b87d 033d fd6a a13d b389 d3bd 8127 97bc
00000030: 650b 11be 5b32 d9bd cd67 b13d 37e6 efbc
00000040: 36e3 9b3c 9958 003e 3f55 113e b8cd a53d
00000050: 56a4 0c3c a020 113e 1451 043d fe2d 063d
00000060: 2326 88bd 4013 25bd cb5b 0ebd bed1 253d
00000070: 205e 42bd 0a70 b3bd 78f2 42bd 1a35 8dbd
00000080: 2b06 993e 1a47 5c3e 8102 e8bd 1c3d 8dbd
00000090: f31d c3bc a743 91bd 15de 10bd 6310 b1bc
000000a0: 20fb 4ebd 479b d1bd 1256 b43d 04c9 fbbc
000000b0: 45b1 c13b daa3 abbd 7cfd 5e3d 932d 9f3d
000000c0: 7d65 60bd c693 d53c 276a be3c 8449 7abd
000000d0: 720c 6a3d b612 8bbd dc2a a1bd 4fc9 aebd
000000e0: d1fb 8cbc 5e0e 58bd 34d1 d43c ebe1 453d
000000f0: 61c1 d6bd 81f3 3abd 6582 903d daf1 e7bd
00000100: 2b84 46bd ab97 a03d e312 d5bd e6eb 6a3c
00000110: 5adb 683b f9ea 3e3d 03bd debc ace6 b33d
00000120: 9ec3 fc3d 9b5e a6bc 7082 97bd 18fa 60bd
00000130: 8e39 5a3d 494b d8bc 8c5a 033e 1b45 6fbd
00000140: d990 b5bb 87bb a13c 0e7f 90bc 1e56 c8bd
00000150: b2bd d23d 3df1 743d 3622 2ebc a868 63bb
00000160: ccb5 39be 9c74 16bc a9a9 94bd 518e a63d
00000170: 2645 bcbc 29aa e1bd 41dd 4dbd 26d6 9ebd
00000180: fbed d8bb 9ecd 51be 1f6e 2cbe 152e 6a3d
00000190: 6796 f53c 3479 9a3d 1f57 093d 762b 0dbd
000001a0: f5ef b7bd 942e b13d 568c cbbc ddb6 613d
000001b0: 8a11 3e3d f9b0 6cbc c66d ac3a d8dd 6b3d
000001c0: 652c a83d bbc9 a2bc 7abc ba3d 38ee 70bd
000001d0: d238 8d3d cd9c b43d 6617 c63e 8a84 b4bd
000001e0: 8c4e 303d e26f 49bd 7bde 5ebd 7337 a1bd
000001f0: 6bc4 593d 1799 ec3d bde2 8b3d bbbc 813d
00000200: 638f 5abd 5af4 593d f0c3 a63d 4bb0 8e3d
00000210: 8fb0 a33b b869 c43d acdd f03d 5c42 3b3d
00000220: 82fd cd3d 1ddb 1bbd 51ae 763d 324c a63c
00000230: fcfc 6f3c 7ee9 5dbc a38a 20bc 3787 56bd
00000240: 823e 9bbd 3200 21bc ea53 2bbd 5a0e a13c
00000250: c93e 3c3c cea7 1e3d 0fc4 c6bd a34e dabd
00000260: 5a92 71ba 18c8 8bbd a00a 1f3c bf0d 9fbb
00000270: de5f b9bd 7757 9d3d f1ed 2b3e 4f9f d33d
00000280: 6682 10be 0263 963d 090f a4bd 86e7 77bd
00000290: d3be 723c fce5 643d aa65 c1bd 3628 22bc
000002a0: b18d 48bd 5f8a a13c 04bd 8fbb e327 03bd
000002b0: 25ed 693d aa49 8f3d 54de 51bd e900 e23d
000002c0: 90b0 c73d 1265 d3bc 494a 843d 6d2b 683d
000002d0: 3af1 bc3d 38a4 c13e 8e1a ee3d 7671 f33d
000002e0: b25c ca3c 37ee d8bc 64e5 e33d 3d1a c43d
000002f0: 88e4 573d 1ba6 d53d e3c7 e8bd ec18 43bc
00000300: e8cd 92bd 1841 f8bc 4297 763d c69e f8bc
00000310: 5b5a 773d dcdf 80bc b55d debc 876f 183e
00000320: b41e 90bd a9cc 223d 3609 0c3e 8947 e5bd
00000330: a73d 04be 1493 afbc 250f c83d 08f4 efbc
00000340: 0a7b d2bd aacf a5bd c7bf 3ebc 4393 f23b
00000350: 9ce1 9ebc 1ab5 97bd 64c4 8cb9 f12e 70bd
00000360: bc23 593d d81b 37bc 853b 3a3d 687f 60bc
00000370: 7ab7 5dbd d069 743d f0e9 babd add6 59bd
00000380: 8509 2d3d 7660 0b3e d64a ce3d 9c09 f43d
00000390: 8f69 013d 85d9 ed3b 07e6 853d 1d16 8a3d
000003a0: 7e9d 2a3d 04c1 99bd 3e2b e93d c22c 9a3d
000003b0: 6f47 36bc 0d6a 8f3d 1b7c 67bc 2ff9 f73c
000003c0: d8b0 b33d 4f73 3cbd 799e 223e 4002 c83c
000003d0: 0d64 67bd 59dc 6f3e 0a4d 8c3e e209 a7bd
000003e0: 9a07 923d c98a 87bc ccb8 8dbd dfff 30be
000003f0: 34e8 373d 95fd 2cbd 1f6b 823d d18d bd3d

lstm.weight_hh_l0 f4 [512, 128]
0.04481906 0.0019580466 0.10343571 0.038920894 -0.12963122 -0.09177749 0.00932699 0.075166
-0.09578804 0.116365574 0.023670001 -0.0389291 -0.06320656 -0.13643715 0.0210998 -0.036200628
0.04373983 0.028609136 -0.019379348 -0.0029714496 0.06513559 -0.013846023 0.09594642 -0.053800933
0.070668876 -0.061130825 0.07514954 0.05540898 -0.07825867 0.041280948 0.1325552 -0.028211685
0.008035064 0.13041046 0.09629214 -0.14285786 0.16362168 -0.040809005 -0.01593981 0.004159756
0.065132 -0.007750424 -0.0022299902 -0.0903651 0.026566494 -0.08462909 0.02428835 -0.07694247
0.02152297 0.090058364 0.021070842 0.05680873 -0.0013449892 -0.014921913 -0.10351316 0.031042628
0.08882987 0.14385135 0.009718834 -0.09927556 0.051473245 -0.05278677 -0.027516704 -0.027980097
0.034054358 -0.05387114 -0.02391168 0.03826444 0.013823261 0.0216212 -0.027721923 0.027037444
0.057217352 -0.014274127 -0.05071917 -0.012006998 0.029026598 -0.009414514 -0.039927334 -0.15164284
0.05472635 0.07859469 -0.011898967 0.08747351 -0.13097805 -0.024249433 -0.049911957 -0.13919275
0.119746536 0.12465034 0.041883133 0.10472695 0.0425543 -0.018221017 0.09740133 -0.0381199
-0.05828815 0.03412795 0.07023424 0.15817602 -0.028852956 -0.09344927 0.032507144 0.086461686
0.060956005 0.10379047 0.046238653 0.00215207 -0.014819358 0.03524245 -0.036229186 0.012526713
0.08814314 0.13479395 -0.14229092 -0.014725748 0.042550653 0.024558585 -0.13008872 0.04084827
0.18367425 -0.038902782 0.073570296 -0.016345713 0.12247094 -0.01617514 -0.038511373 -0.0024227304
-0.04288179 0.042988513 -0.10617228 -0.03905736 -0.033349916 -0.023926284 -0.0717842 -0.0075172232
0.0019560684 0.034611013 0.028198615 0.17998198 0.07976477 -0.093504034 0.021135572 -0.082069576
0.049923718 0.018555919 0.09920481 -0.03531131 0.012712159 0.05777047 -0.010787663 -0.0046247914
0.044539753 -0.023077885 -0.05649318 -0.10451347 -0.06806019 -0.0028357971 0.0036803035 0.039385203
-0.09977171 -0.0146921445 -0.08657037 -0.03004233 -0.04732745 -0.019256007 0.094757855 0.08060269
-0.0827611 -0.05916826 -0.004392646 0.007995468 -0.036986414 -0.019855227 -0.023210723 -0.024352338
-0.0882843 0.07280581 -0.045996573 -0.11843665 -0.07194559 0.07546464 -0.07617437 0.08797683
-0.1363454 0.07053937 0.15502419 -0.05803055 -0.08924975 -0.016375216 -0.028692285 0.02868752
0.024108175 -0.046760455 -0.029435666 0.042467847 0.07738083 0.06263886 0.045087818 -0.034907404
-0.07486108 0.0328798 0.1589623 0.049627706 -0.047885086 0.12446178 0.06340874 0.07579608
0.04820481 0.04648385 -0.047624078 -0.04755112 -0.11164956 -0.16500731 0.0822217 -0.10865262
0.092282064 0.031982664 -0.052575573 -0.010276364 -0.06321981 -0.037054587 0.07116188 -0.050423194
-0.052399646 -0.07579401 0.06846 -0.107399814 0.04390912 -0.09028815 -0.019747334 -0.0874151
0.049457744 -0.13725533 -0.031330947 0.09790899 0.10503348 -0.013594037 0.016124163 0.025349692
-0.005135542 0.09551832 0.032908067 -0.026608782 -0.16035654 0.010466858 -0.086379245 0.0049434872
0.015626803 0.059706017 0.12830257 -0.029624183 0.081859484 0.071344316 -0.07887205 -0.080834545
00000000: 3194 373d 9252 003b 1ad6 d33d 846b 1f3d
00000010: 0cbe 04be d6f5 bbbd 3bd0 183c a2f0 993d
00000020: 852c c4bd 1351 ee3d 97e7 c13c 1f74 1fbd
00000030: 7172 81bd 2eb6 0bbe 7dd9 ac3c 1c47 14bd
00000040: 8928 333d b55d ea3c 70c1 9ebc a7bc 42bb
00000050: cf65 853d 6eda 62bc 8f7f c43d 5e5e 5cbd
00000060: d8ba 903d 5164 7abd 01e8 993d 87f4 623d
00000070: 1546 a0bd 3616 293d 8dbc 073e 311c e7bc
00000080: 80a5 033c 528a 053e d034 c53d 5549 12be
00000090: 718c 273e 5827 27bd 3494 82bc 904e 883b
000000a0: ed63 853d 45f7 fdbb 0725 12bb 5611 b9bd
000000b0: faa1 d93c 0452 adbd 5df8 c63c 0494 9dbd
000000c0: f150 b03c 8570 b83d c29c ac3c 45b0 683d
000000d0: 594a b0ba 0a7b 74bc b5fe d3bd 1c4d fe3c
000000e0: 6fec b53d c54d 133e bf3b 1f3c fc50 cbbd
000000f0: 9cd5 523d f136 58bd b66a e1bc 8436 e5bc
00000100: 957c 0b3d fca7 5cbd 6de2 c3bc 2cbb 1c3d
00000110: f57a 623c f11e b13c 1619 e3bc a17d dd3c
00000120: be5c 6a3d 07de 69bc e8be 4fbd 00b9 44bc
00000130: 30c9 ed3c 553f 1abc d88a 23bd 4348 1bbe
00000140: bd28 603d 41f6 a03d e3f3 42bc 5025 b33d
00000150: 1c1f 06be bfa6 c6bc 7b70 4cbd 8b88 0ebe
00000160: ac3d f53d ad48 ff3d a68d 2b3d 157b d63d
00000170: 6b4d 2e3d 3e44 95bc 597a c73d 9d23 1cbd
00000180: 8ebf 6ebd c0c9 0b3d f8d6 8f3d e5f8 213e
00000190: 095d ecbc 5562 bfbd 3626 053d d312 b13d
000001a0: 01ad 793d 1990 d43d be64 3d3d be09 0d3b
000001b0: e4cc 72bc 635a 103d 0e65 14bd d83c 4d3c
000001c0: 6484 b43d 6d07 0a3e b6b4 11be 4444 71bc
000001d0: 9849 2e3d 162f c93c fa35 05be 8450 273d
000001e0: 1a15 3c3e 8658 1fbd 06ac 963d 72e7 85bc
000001f0: 0bd2 fa3d ba81 84bc 1abe 1dbd acc6 1ebb
00000200: d1a4 2fbd b914 303d da70 d9bd 9cfa 1fbd
00000210: ec99 08bd 0e01 c4bc 9803 93bd 0a53 f6bb
00000220: 6231 003b 47c4 0d3d c800 e73c 324d 383e
00000230: b65b a33d 0b7f bfbd 8224 ad3c 1814 a8bd
00000240: d07c 4c3d 9502 983c e42b cb3d 98a2 10bd
00000250: a946 503c baa0 6c3d bdbe 30bc 908b 97bb
00000260: 516f 363d d50d bdbc 6565 67bd 280b d6bd
00000270: 2463 8bbd c8d8 39bb 3f31 713b 6152 213d
00000280: 1c55 ccbd 52b7 70bc ce4b b1bd 551b f6bc
00000290: 6eda 41bd c6be 9dbc 6810 c23d 0613 a53d
000002a0: a77e a9bd 6b5a 72bd 2ff0 8fbb 6cff 023c
000002b0: 117f 17bd 6ea7 a2bc 6a24 bebc 8e7e c7bc
000002c0: 66ce b4bd 361b 953d e766 3cbd ea8e f2bd
000002d0: 3658 93bd 358d 9a3d 4f01 9cbd 322d b43d
000002e0: 219e 0bbe f276 903d a9be 1e3e 71b1 6dbd
000002f0: 93c8 b6bd 5125 86bc 150c ebbc 1702 eb3c
00000300: 827e c53c e487 3fbd 1123 f1bc c4f2 2d3d
00000310: d779 9e3d cd48 803d 01ae 383d 11fb 0ebd
00000320: c450 99bd f8ac 063d 03c7 223e 6c46 4b3d
00000330: 2723 44bd d1e5 fe3d 71dc 813d fa3a 9b3d
00000340: 6872 453d d965 3e3d 7711 43bd f7c4 42bd
00000350: 86a8 e4bd adf7 28be da63 a83d 4485 debd
00000360: 61fe bc3d 4100 033d 7c59 57bd 325e 28bc
00000370: 6379 81bd 8dc6 17bd 52bd 913d 8d88 4ebd
00000380: 03a1 56bd e439 9bbd c234 8c3d 6ff4 dbbd
00000390: 0dda 333d fee8 b8bd 29c5 a1bc b006 b3bd
000003a0: 3494 4a3d a98c 0cbe e154 00bd 8284 c83d
000003b0: cb1b d73d 86b9 5ebc d216 843c 28aa cf3c
000003c0: 0c48 a8bb 1c9f c33d 9cca 063d a9fa d9bc
000003d0: 8134 24be 2f7d 2b3c 9ae7 b0bd fafc a13b
000003e0: c803 803c 4c8e 743d c061 033e 6aae f2bc
000003f0: f2a5 a73d f81c 923d ab87 a1bd 958c a5bd

lstm.bias_ih_l0 f4 [512]
-0.022614323 -0.009787373 -0.010189547 -0.054609776 -0.15464336 -0.011783005 -0.0863583 -0.036343616
0.049705334 0.026820267 -0.07142941 -0.049404126 -0.0016956427 0.04233098 -0.03684209 0.0515135
-0.113684684 -0.040912785 0.00886344 0.023085475 0.08526795 0.06728566 -0.109370574 -0.0035720065
-0.028207013 0.02523986 -0.010253205 -0.13665402 -0.028013017 0.07456208 0.03331019 0.014180122
-0.08312543 -0.021533636 0.03450202 -0.12005637 -0.1277068 -0.04145405 0.01620342 0.026212158
-0.07969653 -0.072301716 0.011880147 -0.07141524 -0.051596534 0.0075184237 -0.06991618 -0.011099326
-0.1294972 -0.04836716 0.029648611 -0.112950146 -0.075251214 -0.03751751 -0.0081892405 -0.07699984
0.05907015 -0.008676877 -0.027594311 -0.011531217 -0.10970241 -0.05823066 0.026895799 -0.088781215
0.054495532 0.043142077 0.037741873 -0.021050598 -0.08254008 -0.08789027 -0.051806055 -0.04459266
0.027206223 0.05314575 -0.00020351494 -0.10941911 -0.016584478 -0.0776736 0.00890898 -0.05285427
0.02175307 0.024930427 -0.08403226 -0.050390262 -0.030725377 -0.059741978 0.006802304 -0.07643649
-0.06289173 0.01435304 0.06876781 -0.07118957 -0.12062455 0.035350252 -0.07108649 0.003320822
-0.002058028 0.05445075 0.08617818 -0.05460701 -0.020672308 0.0624382 -0.08385103 -0.013119653
0.008010378 -0.06387568 -0.10894315 -0.038198482 0.007687656 -0.06928255 -0.034910515 0.006479014
-0.085103095 -0.086281754 -0.0597569 -0.08246354 0.08903126 -0.04341183 -0.009680707 -0.03828734
-0.116220176 -0.06681845 -0.10193942 -0.017312162 -0.029457621 -0.017990457 0.07848546 -0.07705873
0.044618882 0.07291105 -0.023479171 0.07727576 0.0043450287 0.085135415 -0.035427544 0.08061957
0.062157653 -0.039270908 -0.038752366 0.028072324 0.01678251 -0.029316746 0.079921275 0.10215427
-0.05268161 0.09826866 0.036964912 0.0044729766 0.1908814 0.009536495 0.030405976 -0.046812903
0.015108203 -0.09739838 -0.023168357 -0.09961137 0.0120079 0.12423502 0.03467422 -0.030443003
-0.08262652 0.019256277 -0.03976613 -0.038438667 -0.01530149 0.007245225 -0.02461436 -0.04524775
0.10319243 0.03164329 0.03697071 -0.13829842 -0.044142734 0.039882295 0.06906429 -0.035727818
-0.020695193 -0.078891546 0.057933465 0.035239015 0.02505464 -0.0023829772 0.07406983 0.019244052
-0.07042327 -0.08170722 0.11989461 0.042546105 -0.080606066 -0.04569947 -0.10866456 -0.100106485
0.0331691 -0.01910976 0.06543993 -0.064305864 0.08421624 0.067313895 0.26133406 -0.05972486
-0.12564322 -0.060861938 0.04947409 -0.013732826 -0.087034754 -0.049207944 0.120092034 -0.07395187
0.052447483 0.05386498 0.07459854 -0.014319942 -0.049252823 0.04307158 -0.0129247755 0.011392512
-0.1128291 -0.0064516705 0.030277263 -0.08472883 0.02364999 0.004373106 -0.09763219 -0.02615715
-0.0040450995 -0.04661933 0.095096886 -0.034011915 -0.111438386 0.09413302 -0.015764825 0.08758933
-0.1015624 0.0131762065 -0.1655795 0.000904402 0.022704905 -0.07128374 0.14592187 -0.0058742636
-0.012096813 -0.11038805 -0.054030016 -0.05712548 0.12511873 -0.06695544 -0.07952718 0.048707277
-0.0365545 0.009577226 0.06123538 -0.096852876 0.04619297 -0.07636344 0.023646561 -0.07011415
00000000: ac41 b9bc 385b 20bc 0ff2 26bc 80ae 5fbd
00000010: d45a 1ebe 810d 41bc 9fdc b0bd 0bdd 14bd
00000020: d297 4b3d 2db6 db3c 9549 92bd fb5b 4abd
00000030: 5440 deba 4063 2d3d bbe7 16bd d2ff 523d
00000040: 84d3 e8bd 2a94 27bd f637 113c c01d bd3c
00000050: f7a0 ae3d 10cd 893d aefd dfbd 5318 6abb
00000060: 6512 e7bc d3c3 ce3c 0ffd 27bc 08ef 0bbe
00000070: 8e7b e5bc 01b4 983d 4470 083d be53 683c
00000080: aa3d aabd 4f67 b0bc fd51 0d3d 1de0 f5bd
00000090: 92c5 02be b9cb 29bd 09bd 843c e1ba d63c
000000a0: ef37 a3bd ec12 94bd f3a4 423c 2742 92bd
000000b0: e356 53bd 1c5d f63b 3730 8fbd f3d9 35bc
000000c0: ea9a 04be a51c 46bd a5e1 f23c 6852 e7bd
000000d0: 4f1d 9abd f6ab 19bd 2a2c 06bc 18b2 9dbd
000000e0: 8bf3 713d 7629 0ebc 770d e2bc 6eed 3cbc
000000f0: a8ab e0bd 4683 6ebd 9454 dc3c edd2 b5bd
00000100: b536 5f3d bfb5 303d 3997 1a3d 4e72 acbc
00000110: c60a a9bd d0ff b3bd 9632 54bd cba6 36bd
00000120: 96df de3c 5caf 593d a066 55b9 2017 e0bd
00000130: 2cdc 87bc 5613 9fbd f8f6 113c b87d 58bd
00000140: 7f33 b23c e53a cc3c 1b19 acbd 0566 4ebd
00000150: c9b3 fbbc 01b4 74bd dde5 de3b bc8a 9cbd
00000160: 61cd 80bd 0329 6b3c 23d6 8c3d d6cb 91bd
00000170: 010a f7bd 6dcb 103d cb95 91bd 26a2 593b
00000180: fbdf 06bb c007 5f3d 307e b03d 9aab 5fbd
00000190: f958 a9bc 33bf 7f3d 17ba abbd d0f3 56bc
000001a0: f63d 033c 41d1 82bd 961d dfbd 0376 1cbd
000001b0: bce8 fb3b 02e4 8dbd 54fe 0ebd e94d d43b
000001c0: 884a aebd 7db4 b0bd a7c3 74bd a5e2 a8bd
000001d0: 0556 b63d 9ad0 31bd d49b 1ebc 30d3 1cbd
000001e0: d804 eebd 1dd8 88bd 9dc5 d0bd 3cd2 8dbc
000001f0: 1c51 f1bc b960 93bc fcbc a03d f8d0 9dbd
00000200: 4ac2 363d 6352 953d 6457 c0bc c142 9e3d
00000210: be60 8e3b 7a5b ae3d 791c 11bd e01b a53d
00000220: 0699 7e3d 88da 20bd cdba 1ebd eef7 e53c
00000230: 797b 893c ac29 f0bc c4ad a33d 4236 d13d
00000240: acc8 57bd 1441 c93d 8568 173d 0c92 923b
00000250: 6a76 433e f63e 1c3c f415 f93c e3be 3fbd
00000260: 6588 773c cd78 c7bd 91cb bdbc 0c01 ccbd
00000270: c8bc 443c ee6e fe3d 8e06 0e3d 9b63 f9bc
00000280: 1838 a9bd 57bf 9d3c cfe1 22bd dd71 1dbd
00000290: 1ab3 7abc 5a69 ed3b 0ea4 c9bc b455 39bd
000002a0: 8e56 d33d 659c 013d 996e 173d 1a9e 0dbe
000002b0: 03cf 34bd 9e5b 233d 9471 8d3d 5557 12bd
000002c0: f788 a9bc e491 a1bd a44b 6d3d c956 103d
000002d0: 633f cd3c b92b 1cbb ecb1 973d b4a5 9d3c
000002e0: 133a 90bd 1d56 a7bd 4e8b f53d d344 2e3d
000002f0: cb14 a5bd 5e2f 3bbd 868b debd a104 cdbd
00000300: 52dc 073d 128c 9cbc 5f05 863d cbb2 83bd
00000310: 9079 ac3d dedb 893d 94cd 853e 0ea2 74bd
00000320: 9ea8 00be 5e4a 79bd 58a5 4a3d a6ff 60bc
00000330: 473f b2bd 458e 49bd d0f2 f53d 1474 97bd
00000340: 2cd3 563d 86a1 5c3d 1fc7 983d 319e 6abc
00000350: 54bd 49bd d36b 303d 70c2 53bc a9a7 3a3c
00000360: f112 e7bd 8968 d3bb 0608 f83c 4f86 adbd
00000370: a0bd c13c 464c 8f3b 63f3 c7bd 8547 d6bc
00000380: c18c 84bb e9f3 3ebd 28c2 c23d 1450 0bbd
00000390: cf39 e4bd d0c8 c03d 3c25 81bc 0962 b33d
000003a0: f3ff cfbd 04e1 573c ac8d 29be 6415 6d3a
000003b0: a3ff b93c 36fd 91bd 8b6c 153e e57c c0bb
000003c0: b631 46bc 2113 e2bd 944e 5dbd 68fc 69bd
000003d0: 201f 003e ef1f 89bd 25df a2bd 4881 473d
000003e0: 2cba 15bd cce9 1c3c f3d1 7a3d cd5a c6bd
000003f0: d734 3d3d 6f64 9cbd 6fb6 c13c 0298 8fbd

lstm.bias_hh_l0 f4 [512]
0.0010731943 0.002818245 0.01477519 0.08981205 -0.16691276 0.0021166657 -0.016092597 -0.08390296
0.062870935 0.06756588 -0.14732687 -0.02618671 -0.020241903 -0.02869697 0.043313142 0.05444348
-0.059061006 -0.010394617 -0.091451325 -0.05065355 0.07818119 0.054267798 0.019387035 0.022512734
0.016458644 0.05041459 0.07578527 -0.036662597 -0.043572392 0.007298056 0.03137306 -0.05433891
0.020368775 0.022361053 -0.06392602 0.016130276 0.010002491 -0.04287156 -0.03298617 0.039834477
-0.057136532 -0.08976214 -0.04886984 0.018716177 -0.10081366 -0.1549986 -0.008016327 -0.0012964275
-0.010598984 -0.06033773 0.008790446 0.037297774 -0.045864075 0.05135289 -0.050544642 -0.04015582
0.040325306 0.044344917 0.11368215 -0.010506304 -0.1028896 0.06435458 0.0543907 -0.008962379
0.050505485 0.05402204 -0.08648233 0.03403761 -0.02356444 -0.039289944 0.07072703 -0.022880213
-0.057019398 -0.10154492 0.07148282 0.004497656 -0.019943813 -0.051131207 -0.065284036 0.0798744
0.051183067 -0.078323364 -0.042812258 0.01460568 -0.063862175 -0.055968214 -0.02955269 -0.07321385
-0.119742915 -0.06485026 0.057572123 0.026322605 0.022661578 0.082306206 -0.041586783 0.02882267
0.051925477 -0.078476235 0.053927954 0.017964745 -0.071886696 0.113975294 -0.07842229 -0.14022152
-0.0011365132 -0.057287022 -0.14101915 0.035361253 -0.061728492 -0.15219653 -0.010463143 0.0481996
-0.07252629 -0.064485304 0.056241717 0.0056477124 -0.033785503 -0.0038546356 -0.0049504433 0.05276589
-0.023493817 -0.067058496 -0.0837616 -0.06340633 0.0074888812 -0.16592057 -0.037785158 -0.034187768
-0.029737402 0.032467972 0.00564919 -0.061165445 0.07304823 -0.002382241 -0.10631177 -0.08233088
-0.08403928 0.06496463 -0.007361371 -0.11330598 -0.05774477 0.0379462 -0.028987225 0.08228442
-0.080594905 0.02125496 0.065697506 0.13831204 0.22325367 0.009779242 0.12573576 0.06687443
0.0052113254 0.06862339 0.02503397 -0.0035635175 0.0045395857 0.053977825 -0.006141507 -0.052519992
0.068137765 -0.0754828 -0.07276645 -0.043375798 -0.08518822 -0.0241041 -0.058114637 0.002483352
0.10164529 -0.117147624 -0.077066526 -0.031616494 0.050831884 -0.07771157 0.030047499 -0.04824191
-0.08921677 0.03772259 -0.04832402 0.064781606 0.05637927 -0.072044104 0.117357746 -0.009955565
-0.03640795 0.046959013 0.1113493 0.011732671 0.010727066 0.02682269 -0.10244025 0.04948608
-0.013559225 -0.07144873 0.020911591 0.010537326 0.029808912 0.04200218 0.19112973 -0.023776904
0.009721023 0.018230548 0.1210145 -0.119304545 -0.032881036 0.10346853 0.08076199 -0.08146063
0.002137526 -0.032461796 -0.050042313 -0.080203034 0.052255973 0.09091087 -0.045987368 -0.039630108
0.021185767 -0.05953409 0.009918969 -0.09744261 -0.043212816 0.030996267 -0.037021875 0.020843497
-0.022096101 -0.072085634 0.0031519923 -0.01895111 0.0013026823 0.02138507 -0.07749664 0.04964464
-0.13324957 -0.015628772 -0.08595715 -0.041442063 -0.0907644 -0.14337182 0.23156115 0.035447348
0.0022718983 -0.006655398 -0.043745924 -0.0106377145 0.108114064 -0.054959886 -0.053168226 0.024468804
-0.012341333 0.038032636 0.029392641 -0.026409985 -0.032950003 -0.06584509 0.077825725 -0.073665634
00000000: 6daa 8c3a 4eb2 383b a313 723c 61ef b73d
00000010: 2eeb 2abe c2b7 0a3b 9fd4 83bc 51d5 abbd
00000020: 7ac2 803d fb5f 8a3d dbdc 16be 8385 d6bc
00000030: 59d2 a5bc e815 ebbc 1f69 313d 2000 5f3d
00000040: f4e9 71bd 2f4e 2abc d54a bbbd 197a 4fbd
00000050: 761d a03d e947 5e3d 8fd1 9e3c a06c b83c
00000060: 47d4 863c 877f 4e3d 4f35 9b3d 852b 16bd
00000070: f778 32bd 8824 ef3b 0a81 003d 7a92 5ebd
00000080: 6bdc a63c 872e b73c a5eb 82bd a423 843c
00000090: 7de1 233c 179a 2fbd 821c 07bd 7a29 233d
000000a0: ff07 6abd 36d5 b7bd be2b 48bd ab52 993c
000000b0: 6477 cebd f4b7 1ebe ea56 03bc e3ec a9ba
000000c0: 5ca7 2dbc b224 77bd ce05 103c 8dc5 183d
000000d0: f8db 3bbd 6857 523d e607 4fbd 6e7a 24bd
000000e0: 262c 253d 04a3 353d 30d2 e83d a222 2cbc
000000f0: c8b7 d2bd 56cc 833d c8c8 5e3d f1d6 12bc
00000100: d7de 4e3d 3746 5d3d a61d b1bd 056b 0b3d
00000110: 360a c1bc 7eee 20bd 55d9 903d 496f bbbc
00000120: 2c8d 69bd c8f6 cfbd 9665 923d 1361 933b
00000130: 3561 a3bc f56e 51bd a3b3 85bd 3095 a33d
00000140: 56a5 513d 0068 a0bd e85b 2fbd a94c 6f3c
00000150: 2cca 82bd ed3e 65bd 7c18 f2bc 25f1 95bd
00000160: c63b f5bd 37d0 84bd bfd0 6b3d 81a2 d73c
00000170: c6a4 b93c 2890 a83d e756 2abd 851d ec3c
00000180: cfaf 543d 26b8 a0bd 8fe3 5c3d cd2a 933c
00000190: 5539 93bd e16b e93d de9b a0bd 3b96 0fbe
000001a0: 0ef7 94ba cca5 6abd 5367 10be f6d6 103d
000001b0: 04d7 7cbd 68d9 1bbe 9a6d 2bbc f26c 453d
000001c0: aa88 94bd df10 84bd b75d 663d 7210 b93b
000001d0: ab62 0abd 0e9e 7cbb 5437 a2bb 0c21 583d
000001e0: 1b76 c0bc f755 89bd 348b abbd 2edb 81bd
000001f0: 4a65 f53b 15e7 29be 9cc4 1abd 7908 0cbd
00000200: da9b f3bc 23fd 043d d71c b93b 9e88 7abd
00000210: 4f9a 953d 5f1f 1cbb fcb9 d9bd 189d a8bd
00000220: c91c acbd 2d0c 853d a837 f1bb f70c e8bd
00000230: c885 6cbd 7a6d 1b3d 9e76 edbc bc84 a83d
00000240: f10e a5bd e21e ae3c 6a8c 863d aca1 0d3e
00000250: 9c9c 643e 1d39 203c e0c0 003e 76f5 883d
00000260: c4c3 aa3b 6b8a 8c3d 0a14 cd3c e789 69bb
00000270: cec0 943b da17 5d3d b23e c9bb 341f 57bd
00000280: d08b 8b3d ba96 9abd 9406 95bd d2aa 31bd
00000290: 2977 aebd f675 c5bc 9d09 6ebd bcbf 223b
000002a0: 682b d03d 18eb efbd 0ed5 9dbd 4c80 01bd
000002b0: 1835 503d 3e27 9fbd 2c26 f63c 4f99 45bd
000002c0: 48b7 b6bd 0183 1a3d 68ef 45bd 38ac 843d
000002d0: f3ed 663d dc8b 93bd 4259 f03d ab1c 23bc
000002e0: 8120 15bd 1858 403d 1a0b e43d 643a 403c
000002f0: 93c0 2f3c 42bb db3c 32cc d1bd eab1 4a3d
00000300: 8327 5ebc b653 92bd c94e ab3c c0a4 2c3c
00000310: d231 f43c 7a0a 2c3d 83b7 433e c8c7 c2bc
00000320: ed44 1f3c 3b58 953c 73d6 f73d f155 f4bd
00000330: 44ae 06bd 4fe7 d33d 8b66 a53d d5d4 a6bd
00000340: bc15 0c3b a9f6 04bd 2bf9 4cbd 7d41 a4bd
00000350: 5c0a 563d 7a2f ba3d 405d 3cbd 2e53 22bd
00000360: c68d ad3c 05da 73bd 2c83 223c fe8f c7bd
00000370: ecff 30bd e2eb fd3c 40a4 17bd fbbf aa3c
00000380: e202 b5bc a2a1 93bd a891 4e3b 5c3f 9bbc
00000390: c4be aa3a be2f af3c 8fb6 9ebd 2e58 4b3d
000003a0: 9372 08be e907 80bc 4d0a b0bd 27bf 29bd
000003b0: b0e2 b9bd 10d0 12be 5e1e 6d3e 3d31 113d
000003c0: 21e4 143b 8615 dabb ed2e 33bd cf49 2ebc
000003d0: e86a dd3d 9e1d 61bd edc6 59bd cd72 c83c
000003e0: 4d33 4abc 1cc8 1b3d d6c8 f03c c159 d8bc
000003f0: 95f6 06bd cad9 86bd 1863 9f3d 02de 96bd

lstm.weight_ih_l1 f4 [512, 128]
-0.1614172 0.11681061 0.028480317 0.07772324 0.042673454 0.024735887 0.08639352 -0.029603854
-0.1744253 -0.03663132 0.109951295 -0.08493266 -0.04550872 -0.13010857 -0.08713781 -0.00094955496
0.11079662 -0.038924377 0.13314313 -0.0274793 0.021336572 0.11718103 0.07830014 0.0031289558
0.03328198 -0.07723418 0.023538781 -0.068948135 0.018252488 -0.24558763 0.063759066 0.066389926
-0.054944895 -0.002103886 -0.08162483 -0.057718143 0.09175037 0.12688072 -0.014414089 0.019647311
0.004216674 -0.035782967 0.030468712 -0.20365459 0.1535017 0.11080906 -0.023939475 -0.039729845
-0.08465432 0.0072198715 0.093107544 0.07779286 0.05647899 0.096108906 0.019970557 0.10437115
0.15078615 0.05598069 0.009864881 -0.20423253 -0.046526484 -0.029263997 0.025378546 -0.03273135
-0.007996177 -0.042853188 0.06600493 0.022187747 0.05268983 0.024630208 -0.07140157 0.1926436
-0.068622276 0.011337393 0.005067641 0.039858423 0.032423183 -0.06957789 -0.07758966 -0.16036801
0.007631275 0.0033737447 -0.11975514 -0.057807915 0.035422508 0.045386605 -0.023093993 0.038137335
-0.050343443 -0.19726759 -0.07368179 -0.10330845 0.06418783 -0.024126496 0.15425971 -0.0828238
0.07843192 0.022907792 -0.16123037 -0.061193705 -0.19252181 0.0836444 0.18419228 0.07628388
-0.015942225 -0.07933938 -0.004145394 -0.1236532 -0.09204214 -0.07776079 0.02499116 0.10390334
-0.108030364 0.14153789 -0.057602543 0.075123616 -0.040585488 0.053369924 0.021227522 0.069953375
-0.122364216 0.050436404 0.046297166 0.0033103682 0.0120306695 -0.027726471 0.09136001 0.097936265
-0.038456924 0.023279082 0.08859515 -0.11043931 0.115810044 -0.04667546 -0.14991333 -0.08091306
0.06637472 0.06603902 0.026577737 0.01865157 0.06495776 -0.10219489 -0.0033560535 -0.027323276
-0.003959619 -0.12070844 -0.04780502 0.09020939 0.039506022 -0.054288585 -0.13833198 -0.08703566
-0.1520546 -0.054505274 0.120174594 0.020733934 -0.0012112111 0.16485034 -0.0028562187 0.07701872
0.0018355835 0.013186496 0.026186323 0.05567275 0.05552172 -0.06448216 0.07586957 -0.021517038
-0.21165709 -0.05224874 -0.06003997 0.0074331556 0.06202002 -0.024219342 -0.005506622 -0.012212672
-0.03772798 -0.0051405397 0.17185831 -0.11208533 0.0863779 0.021024134 -0.019012094 -0.028853359
0.06123958 0.13803007 0.032385893 -0.06438721 -0.1286081 -0.089272626 0.041856907 -0.04125594
-0.036038708 0.07992299 -0.007292183 0.07753804 0.012245943 0.013709795 0.09876185 0.08016915
0.032617856 -0.12396743 -0.025609627 0.07185064 -0.15433758 0.030306049 -0.06331177 0.114874944
0.051481497 -0.04146042 0.033400428 -0.011775681 -0.015325483 -0.06999668 -0.06756557 -0.07367887
-0.03800892 0.04939658 0.008948774 0.037310585 0.094996765 -0.044579208 -0.014877708 -0.054588396
0.10529927 -0.06038162 -0.0923909 -0.013657487 0.0631931 -0.11337428 -0.031214643 -0.095707685
0.009712696 -0.04502551 -0.046785537 0.070046045 0.101643905 0.045122035 0.12194661 0.040144652
0.043138444 -0.082351245 0.023142327 -0.073917285 0.01471682 -0.056643717 0.039241485 0.06105637
-0.025931489 0.031208696 0.12287157 0.078939274 -0.015641825 0.07280479 -0.043298617 -0.05160715
00000000: 8d4a 25be 673a ef3d 8e4f e93c 5d2d 9f3d
00000010: 5cca 2e3d eaa2 ca3c 16ef b03d c883 f2bc
00000020: 8c9c 32be b90a 16bd 252e e13d 2df1 adbd
00000030: 5a67 3abd 2e3b 05be 4f75 b2bd 8eeb 78ba
00000040: 57e9 e23d 2b6f 1fbd ac56 083e 451c e1bc
00000050: 09ca ae3c 9cfc ef3d d35b a03d 2b0f 4d3b
00000060: af52 083d f42c 9ebd 67d4 c03c ae34 8dbd
00000070: 3e86 953c 537b 7bbe 1d94 823d 71f7 873d
00000080: e60d 61bd 5ae1 09bb eb2a a7bd dc69 6cbd
00000090: 9ee7 bb3d 05ed 013e 1229 6cbc 66f3 a03c
000000a0: 062c 8a3b 2991 12bd 8599 f93c d48a 50be
000000b0: 8d2f 1d3e dcef e23d b81c c4bc c3bb 22bd
000000c0: 3e5f adbd ac94 ec3b 2baf be3d dd51 9f3d
000000d0: 8356 673d bfd4 c43d 4b99 a33c 8bc0 d53d
000000e0: af67 1a3e 024c 653d 4fa0 213c 5522 51be
000000f0: 8e92 3ebd 0dbb efbc abe6 cf3c 4f11 06bd
00000100: 6602 03bc d386 2fbd 982d 873d 14c3 b53c
00000110: 4bd1 573d 4ac5 c93c fd3a 92bd 5d44 453e
00000120: d689 8cbd 79c0 393c 740e a63b 9642 233d
00000130: 2cce 043d da7e 8ebd 54e7 9ebd 8337 24be
00000140: c60f fa3b 0b1a 5d3b 2f42 f5bd fec7 6cbd
00000150: 3117 113d 4ee7 393d 9d2f bdbc e535 1c3d
00000160: ed34 4ebd 8400 4abe 7ae6 96bd 6193 d3bd
00000170: e974 833d eea4 c5bc 42f6 1d3e 869f a9bd
00000180: eaa0 a03d 1fa9 bb3c 9319 25be 40a6 7abd
00000190: 7024 45be c14d ab3d e79c 3c3e b93a 9c3d
000001a0: 4599 82bc af7c a2bd 16d6 87bb e43d fdbd
000001b0: 9780 bcbd 0d41 9fbd 43ba cc3c 46cb d43d
000001c0: 063f ddbd 4fef 103e a5f0 6bbd 69da 993d
000001d0: f83c 26bd 6c9a 5a3d 57e5 ad3c b743 8f3d
000001e0: 179a fabd 6796 4e3d 19a2 3d3d c3f2 583b
000001f0: 491c 453c a022 e3bc f51a bb3d cf92 c83d
00000200: 0285 1dbd c6b3 be3c 6071 b53d 012e e2bd
00000210: d12d ed3d c42e 3fbd e182 19be bfb5 a5bd
00000220: 78ef 873d 773f 873d 8eb9 d93c 2dcb 983c
00000230: 9308 853d 8e4b d1bd 3cf1 5bbb 10d5 dfbc
00000240: b1bf 81bb fd35 f7bd 32cf 43bd b3bf b83d
00000250: 11d1 213d b55d 5ebd e6a6 0dbe c13f b2bd
00000260: 33b4 1bbe ec40 5fbd 191e f63d 36da a93c
00000270: 80c1 9eba 87ce 283e 662f 3bbb febb 9d3d
00000280: f697 f03a 2c0c 583c b384 d63c 1c09 643d
00000290: be6a 633d 390f 84bd 8161 9b3d 8044 b0bc
000002a0: a3bc 58be c602 56bd 79ec 75bd d491 f33b
000002b0: b408 7e3d a467 c6bc e570 b4bb a917 48bc
000002c0: a888 1abd f971 a8bb a0fb 2f3e fe8c e5bd
000002d0: e5e6 b03d ce3a ac3c 40bf 9bbc e15d ecbc
000002e0: 5bd6 7a3d c157 0d3e 12a7 043d 71dd 83bd
000002f0: d7b1 03be 91d4 b6bd 2672 2b3d fdfb 28bd
00000300: 539d 13bd aaae a33d 44f3 eebb 44cc 9e3d
00000310: 35a3 483c 0c9f 603c a743 ca3d b92f a43d
00000320: 4d9a 053d a3e2 fdbd 48cb d1bc 6e26 933d
00000330: ac0a 1ebe 6444 f83c 9aa9 81bd 8e43 eb3d
00000340: 43de 523d 67d2 29bd e3ce 083d c9ee 40bc
00000350: bc17 7bbc 6b5a 8fbd d15f 8abd f3e4 96bd
00000360: 3eaf 1bbd 1154 4a3d e19d 123c fcd2 183d
00000370: aa8d c23d b098 36bd a1c1 73bc 1598 5fbd
00000380: 25a7 d73d b852 77bd 7137 bdbd a7c3 5fbc
00000390: 626b 813d c630 e8bd dab5 ffbc 6402 c4bd
000003a0: 0022 1f3c ab6c 38bd 31a2 3fbd 4d74 8f3d
000003b0: ae2a d03d e2d1 383d 25bf f93d b86e 243d
000003c0: f0b1 303d c5a7 a8bd fa94 bd3c f261 97bd
000003d0: d11e 713c 3e03 68bd aebb 203d 3f16 7a3d
000003e0: 466e d4bc 61a9 ff3c 17a4 fb3d eaaa a13d
000003f0: 4923 80bc ae1a 953d e459 31bd 0562 53bd

lstm.weight_hh_l1 f4 [512, 128]
0.019249322 -0.12411874 -0.08326483 0.1341686 -0.022103455 -0.05505708 -0.046201345 -0.072915494
0.038052473 -0.018706542 0.08441665 0.01887343 0.11071807 -0.010523816 -0.0072008194 -0.04505478
0.05837317 0.08440687 0.017027384 -0.055800743 -0.005160452 0.034211982 -0.0107083265 -0.12638822
0.08131292 -0.08037734 -0.017580364 -0.027662253 0.06200558 0.0022062317 0.0048726737 -0.07792545
0.15388471 -0.04751294 0.009827112 0.013867068 -0.006943558 0.084647 -0.047208488 -0.0592011
-0.055962928 -0.11101384 0.012295807 0.088658296 -0.09891826 -0.06001268 -0.053050894 0.19951397
0.030637225 -0.050347026 0.042097043 0.0953587 0.09894954 -0.003986528 0.05948912 0.064839885
0.08727009 0.105373956 0.019873342 0.13600384 -0.19106106 0.093113385 0.06312414 -0.07665851
0.07879712 -0.0707363 -0.014314223 0.0014451648 -0.033072334 0.06898325 0.066334836 0.07187658
-0.068499036 -0.018444562 0.01375785 0.05295876 0.014077421 -0.0056349467 0.018995684 -0.0029168776
-0.008875483 -0.11778945 0.04105096 -0.03659339 0.0854478 -0.01723877 -0.0036106538 -0.05131042
0.045577403 0.022549292 0.0383879 0.008311211 -0.0076165646 -0.061177857 -0.07146505 -0.029174505
0.039598797 0.15283665 -0.029464837 0.14659323 0.011767918 0.019095348 0.025357895 0.072512835
0.19133863 -0.062476967 -0.05948995 0.014826951 -0.059468087 0.007974163 0.04178919 0.10642032
0.10014661 -0.06365726 -0.051653408 -0.14204341 0.08413189 0.07623217 -0.11068618 -0.04472094
-0.06661047 0.051119134 -0.025200453 0.031306583 -0.083910316 0.001826245 -0.1006833 -0.07805254
0.021540238 0.013686893 -0.007899302 0.045433786 -0.047853447 0.08333829 -0.035626553 -0.04036792
-0.14892021 -0.10862737 -0.07777545 0.05543979 0.022992563 0.08842503 0.104398385 -0.016084868
0.057588626 -0.0818733 -0.034335174 -0.09880393 0.023818439 -0.08009749 -0.07293701 0.061896276
-0.061523132 -0.007631644 0.08889069 0.08895784 0.011956924 -0.10546252 0.0072133676 -0.0746434
-0.08325187 0.03475809 -0.0031362502 0.007633796 -0.062780015 0.04274625 -0.055068042 -0.06156633
-0.076041006 0.0596249 -0.01785977 0.011816467 0.08362003 -0.06906054 -0.017014053 0.016538562
0.04080157 0.12245851 -0.10011628 0.061177913 -0.013283449 -0.05773911 0.0984914 -0.14983143
0.082495905 -0.0118244765 -0.05517342 -0.0044193272 -0.27079567 0.08047494 -0.031610448 -0.032322466
0.086192824 -0.06894782 0.051288113 0.13082054 -0.006838261 0.012725061 0.13473755 0.014878451
-0.11422683 -0.059823096 -0.0012800908 0.01583732 -0.042502493 0.020735225 -0.09294568 -0.027462143
0.022079945 -0.03029271 -0.026585124 -0.07497443 0.11064781 -0.051482257 0.051611792 -0.031869818
0.086494856 0.0036629299 0.025713032 0.04381807 -0.006394859 0.09919707 0.118993826 0.013992526
-0.048545774 -0.005956495 -0.09044921 0.04593874 0.039614517 0.035615228 -0.006792466 0.007697971
0.120390385 -0.004784167 0.08689714 -0.12765118 -0.10342404 0.01639071 -0.02353157 -0.008876429
-0.07413349 -0.056396727 0.012191299 0.013774852 -0.011636604 0.1466383 -0.08238189 0.06399476
-0.19549313 -0.023476006 -0.053363528 0.084496476 -0.0104627535 -0.031740278 0.14159584 0.05202858
00000000: c1b0 9d3c f731 febd c086 aabd 7e63 093e
00000010: 4e12 b5bc 8883 61bd 9f3d 3dbd b854 95bd
00000020: e9dc 1b3d 763e 99bc a3e2 ac3d 749c 9a3c
00000030: 28c0 e23d 156c 2cbc daf4 ebbb 5c8b 38bd
00000040: b518 6f3d 82dd ac3d 037d 8b3c 528f 64bd
00000050: 0219 a9bb dd21 0c3d fa71 2fbc ea6b 01be
00000060: 6387 a63d e09c a4bd b204 90bc f39b e2bc
00000070: 90f9 7d3d 6d96 103b f3aa 9f3b 6197 9fbd
00000080: f493 1d3e ee9c 42bd e501 213c b332 633c
00000090: c986 e3bb 685b ad3d b05d 41bd da7c 72bd
000000a0: 6239 65bd 395b e3bd 5a74 493c 7b92 b53d
000000b0: a895 cabd dbcf 75bd e54b 59bd 644d 4c3e
000000c0: ebfa fa3c af38 4ebd f36d 2c3d 6c4b c33d
000000d0: 0ea6 ca3d 6ca1 82bb ddaa 733d c6ca 843d
000000e0: a9ba b23d 4dce d73d 6bcd a23c 9744 0b3e
000000f0: 83a5 43be 3bb2 be3d 3b47 813d 23ff 9cbd
00000100: 6260 a13d 31de 90bd 3486 6abc af6b bd3a
00000110: db76 07bd 1747 8d3d 8fda 873d 0734 933d
00000120: 3949 8cbd 0d19 97bc 9b68 613c 49eb 583d
00000130: fca4 663c 5ca5 b8bb d69c 9b3c 1629 3fbb
00000140: 796a 11bc 983b f1bd 0d25 283d f3e2 15bd
00000150: 42ff ae3d 5238 8dbc b8a0 6cbb e02a 52bd
00000160: 5faf 3a3d 4bb9 b83c a13c 1d3d bf2b 083c
00000170: 6094 f9bb a295 7abd 455c 92bd 5fff eebc
00000180: 5932 223d 3681 1c3e 3e60 f1bc 891c 163e
00000190: 3ace 403c d96d 9c3c 5cbb cf3c 9c81 943d
000001a0: 46ee 433e d9e7 7fbd bcab 73bd bdec 723c
000001b0: cf94 73bd 10a6 023c 242b 2b3d e6f2 d93d
000001c0: aa19 cd3d bd5e 82bd 8692 53bd d473 11be
000001d0: 574d ac3d 9d1f 9c3d 70af e2bd 4e2d 37bd
000001e0: 126b 88bd 4c62 513d 2e71 cebc 553b 003d
000001f0: 2cd9 abbd 9d5e ef3a 0c33 cebd 03da 9fbd
00000200: 2775 b03c fd3e 603c 136c 01bc c718 3a3d
00000210: fa01 44bd 44ad aa3d 26ed 11bd d558 25bd
00000220: 8a7e 18be 0778 debd bc48 9fbd d514 633d
00000230: e65a bc3c 2f18 b53d d2ce d53d 6ac4 83bc
00000240: 0de2 6b3d 30ad a7bd 0aa3 0cbd b759 cabd
00000250: e31e c33c 270a a4bd 0060 95bd f386 7d3d
00000260: aeff 7bbd df12 fabb 520c b63d 872f b63d
00000270: f9e6 433c bcfc d7bd 1d5e ec3b a4de 98bd
00000280: f57f aabd 805e 0e3d 8c89 4dbb ec24 fa3b
00000290: cf92 80bd b116 2f3d 078f 61bd fa2c 7cbd
000002a0: 63bb 9bbd 3d39 743d a74e 92bc db99 413c
000002b0: fa40 ab3d 9d6f 8dbd 0e61 8bbc e17b 873c
000002c0: 8c1f 273d 87cb fa3d c409 cdbd b195 7a3d
000002d0: d3a2 59bc d87f 6cbd dcb5 c93d 696d 19be
000002e0: 9df3 a83d 73bb 41bc 86fd 61bd 01d0 90bb
000002f0: bba5 8abe 0cd0 a43d f579 01bd 9064 04bd
00000300: dd85 b03d 8434 8dbd 7c13 523d d2f5 053e
00000310: 7e13 e0bb c67c 503c a4f8 093e bfc4 733c
00000320: c2ef e9bd 1009 75bd b8c8 a7ba 44bd 813c
00000330: 1817 2ebd ebdc a93c 4e5a bebd 4af8 e0bc
00000340: 00e1 b43c 6b28 f8bc 0cc9 d9bc 328c 99bd
00000350: 529b e23d 0fdf 52bd e366 533d ed89 02bd
00000360: 3724 b13d c40d 703b 23a4 d23c 947a 333d
00000370: f78b d1bb d527 cb3d 09b3 f33d e840 653c
00000380: efd7 46bd b42e c3bb 6f3d b9bd 432a 3c3d
00000390: d542 223d 46e1 113d 5693 debb 433f fc3b
000003a0: 3c8f f63d 80c4 9cbb 21f7 b13d feb6 02be
000003b0: fccf d3bd cf45 863c 47c5 c0bc 716e 11bc
000003c0: 4dd3 97bd 4100 67bd 04be 473c ebaf 613c
000003d0: 74a7 3ebc 5a28 163e d6b7 a8bd af0f 833d
000003e0: 5a2f 48be c150 c0bc b793 5abd 7d0c ad3d
000003f0: f86b 2bbc 1802 02bd 80fe 103e ec1b 553d

lstm.bias_ih_l1 f4 [512]
0.11190483 0.02176808 -0.038775947 -0.0042563686 0.02666099 0.098048575 0.03700139 0.016447447
0.04094623 -0.005028078 -0.07527533 -0.047778856 0.07298963 0.08898064 -0.00811601 0.029376818
-0.009535452 0.029750993 -0.09479598 -0.021792095 -0.08779027 -0.012574254 0.06938423 -0.03548102
-0.012346696 0.0111765135 0.03662889 -0.063836105 -0.070421785 0.07052807 0.016855342 0.053412396
-0.12117928 0.03536213 -0.09141333 0.03495773 -0.10976415 0.021127788 -0.06798892 -0.029850082
0.044685464 -0.018037183 0.11851384 -0.015944818 0.0026372385 0.0076728333 0.021146264 0.03627831
-0.013748552 0.044030134 0.02474382 0.05028705 0.00902811 0.006122007 0.0937615 0.006031684
0.03539357 0.0019260262 0.0045262882 -0.0037163012 -0.06180819 0.040930107 0.04799714 -0.05237163
-0.059538525 -0.048017703 0.09014786 -0.06637008 0.028926374 -0.03935501 -0.012888696 -0.09570095
0.020237055 -0.032661103 -0.07183557 -0.023991806 -0.07483067 0.058974326 0.05428835 -0.067328
-0.03300142 0.04522392 0.10294258 -0.044073522 -0.013249038 -0.1168116 -0.04494517 -0.07812416
-0.002444192 0.08039667 0.041784734 -0.014776263 -0.0048259553 -0.07108328 -0.06119395 0.080438755
0.0124301845 -0.035875965 0.018402183 -0.006138991 0.02994575 -0.0060330294 -0.0063636787 -0.030818831
-0.1646679 -0.014278152 -0.07022375 -0.037836608 -0.030133067 -0.015184026 -0.06132647 0.0336416
-0.07037092 0.03551679 -0.03481014 0.07023481 0.005093244 -0.20509736 -0.057379097 0.07363623
-0.036395192 -0.03253525 -0.033679113 -0.090471126 0.0035498624 -0.08674634 -0.08225848 -0.11610249
-0.021599727 -0.13795829 -0.11264064 0.09743298 0.045748144 0.03919026 0.06462775 -0.0063437247
-0.050519355 -0.012055234 0.015183516 0.0008347676 0.040684417 0.048806876 -0.09741927 -0.055534646
0.043324165 -0.0052812067 -0.0910105 0.0036414415 -0.031873975 -0.03715834 -0.021638192 0.021792129
-0.09476961 0.033343285 0.032085598 -0.017267384 0.045433912 0.07654447 0.022424957 0.035102334
0.13060936 -0.05157146 -0.07331569 0.060431518 -0.054463305 -0.0661817 -0.045521416 0.004052973
0.026448542 -0.10104141 0.02603935 -0.08901374 0.04927039 -0.032462567 0.0826782 -0.04924889
-0.0608409 -0.09975208 -0.14488743 0.024793198 -0.0066103274 -0.00021089989 0.093990795 0.1254637
-0.04626952 0.09881788 -0.004202209 0.052142497 0.036370218 -0.068694465 0.14331003 -0.070615366
-0.03865232 -0.14647217 0.0935839 0.02683483 -0.083662316 -0.028691988 -0.13533737 0.08377122
-0.034488693 0.043371715 -0.041002292 0.0068815984 0.05349758 0.007269187 -0.038217187 -0.044281192
-0.011898112 0.038782816 -0.04441197 0.053814862 -0.101166636 -0.10168621 -0.006640802 -0.10059702
0.08436193 0.10007609 0.029442007 -0.08590214 -0.0320329 -0.06600802 -0.13564546 -0.05328615
-0.04006507 0.052097064 0.047378697 0.0105213355 0.022131952 -0.10871423 -0.006324272 -0.0043180417
-0.048621763 0.05824177 0.044292692 -0.03634932 -0.011002441 0.014934364 0.07820109 -0.004937838
0.035393838 -0.05372087 0.061572865 0.058558807 0.052489925 -0.067389496 -0.08153211 0.0917717
-0.07520213 -0.0073879957 -0.08692743 0.00422263 0.009606392 -0.099530645 -0.09247373 -0.017329715
00000000: 5c2e e53d f952 b23c 87d3 1ebd 0279 8bbb
00000010: 2668 da3c b1cd c83d c58e 173d ccbc 863c
00000020: 3cb7 273d 93c2 a4bb f429 9abd c3b3 43bd
00000030: 967b 953d 7b3b b63d 03f9 04bc a7a7 f03c
00000040: 963a 1cbc 5bb8 f33c 6524 c2bd 5685 b2bc
00000050: 63cb b3bd 3e04 4ebc 5219 8e3d 8c54 11bd
00000060: cc49 4abc b21d 373c 2d08 163d 81bc 82bd
00000070: 4c39 90bd 0571 903d 3714 8a3c f5c6 5a3d
00000080: d82c f8bd e1d7 103d e936 bbbd d62f 0f3d
00000090: 07cc e0bd 2f14 ad3c c63d 8bbd 2988 f4bc
000000a0: 1b08 373d b7c2 93bc 62b7 f23d b59e 82bc
000000b0: 85d5 2c3b 646c fb3b ee3a ad3c 9198 143d
000000c0: 9b41 61bc f158 343d 8db3 ca3c cbf9 4d3d
000000d0: a3ea 133c 1e9b c83b 0806 c03d 6fa5 c53b
000000e0: d9f8 103d b772 fc3a 4251 943b 308d 73bb
000000f0: 962a 7dbd 54a6 273d a698 443d a283 56bd
00000100: abde 73bd 36ae 44bd 719f b83d 09ed 87bd
00000110: 01f7 ec3c b832 21bd 1c2b 53bc dcfe c3bd
00000120: 2ec8 a53c a6c7 05bd 871e 93bd 778a c4bc
00000130: d340 99bd 108f 713d 765d 5e3d 43e3 89bd
00000140: 7f2c 07bd b83c 393d 8fd3 d23d 7086 34bd
00000150: 7e12 59bc ec3a efbd 6d18 38bd 8fff 9fbd
00000160: bd2e 20bb 02a7 a43d 7826 2b3d 2418 72bc
00000170: 0c23 9ebb 1c94 91bd 82a6 7abd 13bd a43d
00000180: f9a7 4b3c adf2 12bd 2dc0 963c 9729 c9bb
00000190: ca50 f53c b8b0 c5bb 6886 d0bb c677 fcbc
000001a0: b49e 28be e9ee 69bc 78d1 8fbd 8ffa 1abd
000001b0: 9fd9 f6bc 6cc6 78bc 7731 7bbd c6cb 093d
000001c0: a11e 90bd 0e7a 113d 1495 0ebd 45d7 8f3d
000001d0: 3ae5 a63b 0b05 52be 5806 6bbd 97ce 963d
000001e0: 2013 15bd af43 05bd 1cf3 09bd ed48 b9bd
000001f0: cfa4 683b 11a8 b1bd 2277 a8bd 24c7 edbd
00000200: e9f1 b0bc f044 0dbe 23b0 e6bd f18a c73d
00000210: 6862 3b3d f785 203d 8e5b 843d 05df cfbb
00000220: 62ed 4ebd 5183 45bc 48c4 783c 4ed4 5a3a
00000230: b4a4 263d b8e9 473d c183 c7bd 4c78 63bd
00000240: ae74 313d f90d adbb b763 babd 40a5 6e3b
00000250: 498e 02bd 5833 18bd 9442 b1bc 6885 b23c
00000260: 9216 c2bd f892 083d 306c 033d 5474 8dbc
00000270: e918 3a3d 59c3 9c3d 8bb4 b73c 77c7 0f3d
00000280: 76be 053e 983c 53bd 8926 96bd 0a87 773d
00000290: ea14 5fbd 458a 87bd aa74 3abd cdce 843b
000002a0: 9daa d83c ccee cebd 7a50 d53c d64c b6bd
000002b0: c0cf 493d 78f7 04bd 3053 a93d 34b9 49bd
000002c0: 4f34 79bd d24a ccbd 5f5d 14be 1b1b cb3c
000002d0: 729b d8bb 0225 5db9 3f7e c03d 8e79 003e
000002e0: 1c85 3dbd 0761 ca3d afb2 89bb 5f93 553d
000002f0: f0f8 143d afaf 8cbd ddbf 123e ca9e 90bd
00000300: e551 1ebd cdfc 15be eaa8 bf3d b8d4 db3c
00000310: 2657 abbd 760b ebbc e195 0abe 3f90 ab3d
00000320: 0444 0dbd 8aa6 313d 05f2 27bd 087f e13b
00000330: 4720 5b3d 5c32 ee3b a089 1cbd 3260 35bd
00000340: 4cf0 42bc bbda 1e3d 53e9 35bd f96c 5c3d
00000350: 7430 cfbd dc40 d0bd 169b d9bb cf05 cebd
00000360: f3c5 ac3d b1f4 cc3d 5d30 f13c 76ed afbd
00000370: ee34 03bd 362f 87bd a5e6 0abe 9442 5abd
00000380: 451b 24bd bb63 553d 2a10 423d ae61 2c3c
00000390: 114e b53c 91a5 debd d73b cfbb 5c7e 8dbb
000003a0: 9d27 47bd ec8e 6e3d 416c 353d 06e3 14bd
000003b0: 9543 34bc 43af 743c e527 a03d 96cd a1bb
000003c0: 21f9 103d 6a0a 5cbd d433 7c3d 5cdb 6f3d
000003d0: adff 563d 8103 8abd 4ffa a6bd cdf2 bb3d
000003e0: 9303 9abd 0017 f2bb 0207 b2bd fd5d 8a3b
000003f0: 2164 1d3c b9d6 cbbd de62 bdbd 0cf7 8dbc
