checkpoints/GRU_seq96_pred96_seed2024/checkpoint.pth (torch, 642722 bytes, 10 tensors)

gru.weight_ih_l0 f4 [384, 21]
000000 ce 37 6c 3c 57 35 ae ba 1f 32 e1 3c 7b c5 01 be
       0.014417602 -0.0013291043 0.02748972 -0.12672989
000010 81 7e 05 be ac 4c c7 bd cb 74 b1 bd 87 e8 b8 bc
       -0.13036539 -0.09731421 -0.086648546 -0.022571815
000020 83 3e 1f bd eb 01 fe 3b 47 9b 77 bc db b6 6b 3d
       -0.038877975 0.0077516935 -0.015112705 0.05754743
000030 27 04 45 bd d7 e3 56 bd bf e7 b9 3d d3 0c a9 bd
       -0.048099663 -0.05246338 0.09077405 -0.08254399
000040 68 58 45 3d b5 50 1b 3e f9 ad cf 3d 1d f5 1f bd
       0.048180014 0.15167506 0.101406045 -0.039052118
000050 0b 51 9d 3d 4c 77 7d 3d ba b8 b2 3a 2d 9d 18 3b
       0.07681473 0.06188135 0.0013635375 0.0023287043
000060 67 26 f7 bb be 11 d3 3d 41 5a b1 bd 4a 38 a2 3d
       -0.0075424197 0.103061184 -0.08659793 0.079208925
000070 07 c2 0d be 02 9c 50 bd 57 ab 2d bc 84 fe 4d bd
       -0.13843547 -0.05093003 -0.010599933 -0.050291553
000080 16 91 f8 bd 64 6a c6 bd a4 61 b4 3e 71 2f 7c 3d
       -0.12137048 -0.09688261 0.35230744 0.06156868
000090 61 af 98 bd 51 31 ab bd 03 06 73 bd 4a a8 23 bd
       -0.07455326 -0.08359016 -0.059331905 -0.039955415
0000a0 19 1a 9c bd 05 f7 c7 bc dd 3d ff bd 7a 2a 9a 3d
       -0.07622165 -0.02440978 -0.12462971 0.07527633
0000b0 1e 91 00 3e cc a4 d4 3d 83 4e 0c 3e 27 fa 65 3d
       0.12555358 0.10382995 0.13701825 0.056146767
0000c0 da da 1b 3b a9 79 5e bd 77 7c a1 3d f6 1a 8e bb
       0.0023781569 -0.054315243 0.07885068 -0.00433671
0000d0 80 26 dc bd 67 00 1f 3c 41 c0 4d bd cd 3f 21 be
       -0.10749531 0.009704686 -0.050232176 -0.15746994
0000e0 53 97 64 3e cd 45 43 3b 9a a4 32 3c 6f 21 20 3d
       0.2232335 0.0029796243 0.010903502 0.039094385
0000f0 53 4b ca bd d0 cf 22 3c c0 4b 3e 3d 8b 88 bf bd
       -0.09877648 0.009937242 0.04645896 -0.093522154
000100 c5 04 5f bd 93 9d 93 3d 60 79 08 be 2f de 98 bd
       -0.054447908 0.07207789 -0.13327551 -0.07464253
000110 81 1f cf bd 6c fd a6 bd 3a 27 b6 bd f5 b0 2d bd
       -0.10113431 -0.08153805 -0.088942006 -0.042405088
000120 ca d4 c6 bb c5 19 be bc 9f d1 29 3d 55 03 7d bd
       -0.006067847 -0.023205647 0.041459676 -0.061770756
000130 61 76 12 be 00 88 bf bb f1 5b a8 bc 92 73 67 bd
       -0.1430297 -0.00584507 -0.020551654 -0.0565067
000140 16 9b 2a bc a7 4b 9a 3c 30 22 30 3b 3c 66 e9 bd
       -0.010412952 0.018834902 0.0026875846 -0.11396453
000150 af c9 d9 3c 47 66 16 bc 6c 16 9b bd 00 e2 c0 3c
       0.026585428 -0.009179658 -0.07572636 0.023545265
000160 fa 08 f0 3c c6 e4 d0 bd e6 7b ed bd 06 d1 47 bd
       0.029301155 -0.10199885 -0.115958974 -0.048783325
000170 be e5 87 bd 1a ad 1c be 0b 20 d3 39 10 24 24 be
       -0.06635617 -0.15300408 0.0004026893 -0.16029382
000180 66 c1 b4 bd c1 1a d2 3d ca fa a2 bd dc 67 9d 3d
       -0.0882595 0.10259009 -0.079579905 0.07685825
000190 fb a1 43 be a4 35 02 be a6 59 1e be c2 54 ba bd
       -0.1910476 -0.12715775 -0.15463886 -0.090981975
0001a0 77 ae a0 bd 6f c9 bb bb a6 53 ca 3c 97 e9 e0 3d
       -0.078457765 -0.0057308 0.02469809 0.10982054
0001b0 e3 f1 f8 3d 83 6b 2b 3d 89 c4 7b bc b1 03 27 3d
       0.12155511 0.041850578 -0.015366682 0.040775005
0001c0 ea 4c 46 3d 8c 38 16 bd b7 3f 99 3d 0a b5 04 be
       0.048413195 -0.03667502 0.07482856 -0.12959686
0001d0 af 4a ee 3b 26 a3 7c bc 3f e3 87 3d 76 bc 2c 3c
       0.0072720866 -0.015419757 0.06635141 0.010542979
0001e0 2a c2 16 3e 29 a2 45 bd a1 54 6d bd a7 b2 b5 bd
       0.14722505 -0.04825035 -0.057942037 -0.08871966
0001f0 9a 5a ff 3d a7 5f c3 3d dd b7 11 bd c0 30 b7 3d
       0.12468453 0.095397286 -0.035575736 0.08944845
000200 a2 43 c4 bc 1a 47 98 3d b8 e8 62 3d 7d 88 20 bd
       -0.023958031 0.074354365 0.05539772 -0.039192665
000210 ba 63 d5 bd 46 99 ca 3b 2e 1e ec 3b 40 39 82 bd
       -0.10419412 0.0061828224 0.007205746 -0.06358576
000220 6f 47 67 3d 3b 42 b9 3c d8 9f ef 3d 4a 7d 18 3e
       0.05646461 0.022614589 0.1170041 0.14891544
000230 1d f6 0d be 28 92 2b be 15 24 c1 bd 17 4d 08 be
       -0.13863416 -0.16754973 -0.0943071 -0.13310657
000240 93 7c d1 bd ae 8b 04 bd c3 0d 0d 3d 62 bc 89 3d
       -0.10228839 -0.03235977 0.034436952 0.06725384
000250 96 75 f9 3c 45 c8 4e 3d a7 9a d4 3c 06 99 0c 3d
       0.030451577 0.05048396 0.02595265 0.034325622
000260 cc de 0e 3a 2b 32 34 3d 4c eb ac bd e5 6d d7 3d
       0.00054500694 0.043993156 -0.08443317 0.105190076
000270 5f 5d a0 3c 33 06 9a 3d 6b db a2 bd 26 b9 03 be
       0.019575773 0.07520714 -0.07952007 -0.12863597
000280 55 49 a5 3b 5d 36 30 be a3 08 84 be 81 06 de bd
       0.0050441422 -0.17208238 -0.2578784 -0.10841084
000290 68 e5 ec bc f1 3f 6d bd 83 be 48 bd 4c 67 dc 3c
       -0.028917983 -0.057922307 -0.04900981 0.026904725
0002a0 8c 7d ce 3d 54 09 70 bd dc 02 c4 bd 75 b5 cd bd
       0.1008254 -0.058602646 -0.09570858 -0.10044376
0002b0 9f e0 57 3d 9c a3 4a bd 0a 14 04 be 58 10 23 3d
       0.05270445 -0.049472436 -0.1289827 0.03981051
0002c0 c9 11 88 3c 8b 0c da bd 50 a0 3b 3e c9 c3 6c 3d
       0.016610043 -0.10646924 0.18322873 0.057803903
0002d0 38 41 94 3d 20 a5 fb bd 2a 90 0a bd 06 88 70 3b
       0.07239002 -0.122873545 -0.03382889 0.003670217
0002e0 91 85 a2 3d 7c 4b 23 3c 1a d1 90 3d d0 4e 85 3d
       0.07935632 0.009966727 0.07071133 0.06509173
0002f0 68 b2 72 bd 06 f0 94 3d 76 f0 f0 bd 1e c5 75 bc
       -0.059252173 0.07272343 -0.11764614 -0.01500061
000300 be 5e c1 bd fb 3c 88 bd 3d 2a 18 3d d4 57 b4 bd
       -0.09441899 -0.06652256 0.037149657 -0.088058144
000310 a3 d7 8a 3d f4 d8 95 bd 2c cf ac bd 86 3f 1d 3e
       0.06779411 -0.07316771 -0.084379524 0.15356264
000320 b1 4e 67 be 48 75 38 be 58 bf 90 3e 53 d1 07 be
       -0.22588612 -0.18013489 0.28270984 -0.13263445
000330 a5 57 28 be 2b 07 42 bd 13 ef 7c 3d 5a 7d b3 bd
       -0.16439684 -0.047370117 0.061751436 -0.08764143
000340 43 a5 8a bd 49 6b 88 bd f0 5b 10 bd a3 85 44 bd
       -0.067698024 -0.06661088 -0.03524393 -0.04797901
000350 d0 eb 8e bd bc 12 1c bd c9 6a 85 3e 7f 93 b9 bd
       -0.069785714 -0.038103804 0.26058033 -0.09061336
000360 42 c5 81 3d ab 67 9b bd 40 51 62 3d 21 18 80 bb
       0.06336452 -0.075881325 0.055253267 -0.0039091264
000370 6a de 51 bc df d6 9c bd f1 b7 35 be 65 eb 5f 3d
       -0.012809375 -0.07658171 -0.1774595 0.05466785
000380 56 63 05 be e5 3c 0e be 84 78 3a 3d 98 51 69 3d
       -0.13026175 -0.13890417 0.04552509 0.05696258
000390 5a 7e 44 bd 40 18 e6 bb 53 50 79 3d 8e bf d6 bd
       -0.04797206 -0.007021934 0.06086762 -0.10485755
0003a0 93 a4 8c 3b 61 cd c8 bd 11 d4 83 bc 51 92 d2 bd
       0.0042920797 -0.09804798 -0.016092332 -0.10281814
0003b0 8d a8 d6 bd a3 39 3d bd ab 00 63 bd 8f 9a a7 bd
       -0.10481367 -0.046197545 -0.05542056 -0.081837766
0003c0 bd 93 c8 bc c8 64 67 bd 7d 51 d0 3d 7e 26 a8 bd
       -0.02448451 -0.056492597 0.10171793 -0.08210467
0003d0 1e 66 fb bd b4 82 c7 3d 55 cd 74 3d dc d4 ba bd
       -0.12275337 0.097417265 0.059766132 -0.09122631
0003e0 65 4d 6c 3d c5 44 a3 bc 2f 48 e9 bd ed 80 0c 3c
       0.057690997 -0.019930253 -0.11390721 0.00857566
0003f0 ab 1a 25 3d 0d 27 d9 bd be 21 3f 3b 78 a2 65 3d
       0.040308636 -0.106031515 0.00291644 0.056063145

gru.weight_hh_l0 f4 [384, 128]
000000 8b 76 2a 3d c4 d1 bb 3c be 3a 2b 3c 87 a4 7d bd
       0.041616958 0.022927172 0.010451017 -0.061924484
000010 ca a3 5b bc a9 3c af bd b3 31 b9 bc c2 d5 e9 bd
       -0.01340575 -0.08556492 -0.022606706 -0.11417724
000020 52 1b 15 3c 5d 0b 13 bc df f6 c2 bd 85 5e 11 ba
       0.009100752 -0.008974877 -0.09519743 -0.00055453955
000030 69 de 80 bd 5a 36 d8 bd 1e a1 04 bd 1f d3 26 bd
       -0.06292421 -0.10557242 -0.032380216 -0.040728685
000040 61 fe f5 3c 8c 2b 4f 3d 6d 3c 22 3d 3f 75 01 3e
       0.030028524 0.05057864 0.039608408 0.12642382
000050 48 51 1e 3c 18 b9 86 bd bd 4d e1 3c 43 38 95 3d
       0.009662934 -0.065782726 0.027502889 0.07286122
000060 3f 77 82 3c 86 53 ab 3d f1 26 a7 3d 91 8e 08 be
       0.015926002 0.0836554 0.08161724 -0.13335635
000070 c0 6f a0 3c 79 fc b5 bd 4a b8 3f 3c b4 2b ef 3d
       0.019584537 -0.08886046 0.011701653 0.116782576
000080 7f dc 97 bd a0 89 17 bd 76 c0 e4 bb 52 fd 9b 3d
       -0.07415103 -0.036996484 -0.006980951 0.076166764
000090 90 22 cf 3c f8 a9 3c bd 37 1c 15 bc df 41 af bb
       0.025285035 -0.046060532 -0.009100965 -0.0053484286
0000a0 a4 3a 68 bc 10 d9 13 bc b3 4a 90 bb a4 47 e9 3c
       -0.014174137 -0.00902392 -0.004403436 0.028476544
0000b0 7f 03 42 3c c6 0b 21 bd d2 12 90 bd e4 c0 a6 3d
       0.011841654 -0.03931787 -0.0703484 0.0814226
0000c0 dd 49 1c be 82 50 3f bd b1 df 95 bd 87 49 12 bb
       -0.15262552 -0.046707638 -0.073180564 -0.0022321658
0000d0 bc f8 3a bd 0e 30 b0 bd ab 14 c0 bd eb c5 18 3e
       -0.045647368 -0.08602916 -0.09378942 0.1491925
0000e0 03 34 09 3e 31 7b 43 bd cf 84 fa 3c a6 2e 68 bd
       0.13398747 -0.047724906 0.030580906 -0.056685112
0000f0 2d ab 26 3d b9 0b 33 3d 2a f2 07 3b e9 56 93 bd
       0.04069059 0.04371235 0.0020743706 -0.07194311
000100 54 a1 a2 3d 55 10 10 3c 6c fb 39 3d 28 4d 0f bd
       0.07940927 0.008792956 0.04540579 -0.03498569
000110 ff e3 d3 3d 14 3c bd bd 1e 11 e1 3d 77 c2 b0 bd
       0.10346221 -0.092399746 0.10989593 -0.08630841
000120 17 f9 e7 bd 0f ad 37 3e 9f ea 31 bd 0c cf a8 3c
       -0.11326807 0.1793711 -0.043436643 0.02060654
000130 18 a6 80 3d d8 30 ec bd 92 26 cf 3d d9 fc f2 3b
       0.0628168 -0.11532754 0.101147786 0.0074153957
000140 48 d2 2e 39 3d 74 93 3c b3 8e b1 3d 6d 10 0b bd
       0.00016672269 0.017999763 0.08669796 -0.03395121
000150 99 5c 93 bd fb 36 6b bd 4d 0d 07 3d 95 3a 02 3e
       -0.07195396 -0.05742548 0.03297167 0.1271766
000160 21 90 79 bd fe 1b d0 3b 3e 3d 86 3d 0e 2d 4b bd
       -0.060928468 0.006350993 0.0655465 -0.049603514
000170 c9 fc b3 bd 81 ab ef 3d 16 2e 38 3d bc ab 70 3a
       -0.08788449 0.11702634 0.044965826 0.0009180864
000180 5a 03 24 be 54 55 68 bd 80 be 8a 3d 2b 81 09 be
       -0.16016904 -0.056722 0.06774616 -0.1342818
000190 32 9f c6 bd a1 88 37 bd 2c 3c be bd d6 38 12 bd
       -0.09698333 -0.044808034 -0.092888206 -0.035698734
0001a0 57 e9 f0 ba 8c 81 6c bd cd a2 9b 3a 18 ab c6 3c
       -0.0018380088 -0.057740733 0.001187408 0.024251506
0001b0 de 1a d5 bd 95 47 4c bd b3 74 9a bc 3e 30 da 3c
       -0.10405515 -0.049872953 -0.018854475 0.026634332
0001c0 fb 38 b6 bd d2 8f 9c 3d 5e 8d 18 3d 10 09 eb bc
       -0.08897587 0.07644619 0.037244193 -0.028690845
0001d0 45 18 6d 3d b3 aa 9e 3c 62 d8 d5 ba 28 e7 50 bd
       0.057884473 0.019368505 -0.0016315097 -0.051001698
0001e0 9d ff 20 3e c7 2f 4f bd 01 b1 10 3d 3a 59 bc 3c
       0.15722509 -0.050582673 0.035325054 0.022991765
0001f0 a5 c9 13 bd fa d3 f1 bc 43 53 5b 3d e1 e1 b8 3b
       -0.036080975 -0.029520024 0.0535462 0.0056421612
000200 c2 01 93 bb 30 78 84 be 6c 3f 03 3c fc 01 17 3d
       -0.0044862935 -0.25872946 0.008010726 0.036867127
000210 84 81 2f bd 7f 9f 15 bc fc 13 24 3c d2 80 21 3e
       -0.042848125 -0.009132265 0.01001453 0.15771797
000220 35 b8 5f bc c1 c1 4d 3e e1 5c 65 be 7f 70 ce bc
       -0.013654758 0.20093442 -0.22398712 -0.025200127
000230 ed eb 27 be f9 b6 0e 3d 7e 1a dd 3c d6 96 37 3d
       -0.16398592 0.034842465 0.026990172 0.044821583
000240 b9 b5 8b 3d 4e 87 82 3d 8b ab 56 bd b3 f9 c4 bd
       0.0682177 0.063734636 -0.05240969 -0.09617939
000250 a2 15 00 be f6 65 6e be 9e a8 7a 3d 9f 2f 0e bd
       -0.12508252 -0.23281083 0.061195962 -0.034713384
000260 05 18 15 be 33 5f c9 3d 99 57 0b be f6 b8 44 3e
       -0.14559944 0.09832611 -0.13607635 0.19211182
000270 01 21 c3 bd f7 cb 85 3c 7a 88 45 bd 34 e0 40 bd
       -0.09527779 0.01633261 -0.048225857 -0.047088817
000280 f0 65 62 ba e1 b4 cb 3d 26 56 7d 3d 01 8c fc 3c
       -0.00086364057 0.09946609 0.061849736 0.030828478
000290 30 37 c3 bd 51 58 f6 bc 73 f7 01 3d 41 32 6e bd
       -0.095320106 -0.03007141 0.031730127 -0.058153395
0002a0 8f ec 28 bd 06 7b 4e 3d 5b 03 d7 3c 04 a5 be 3b
       -0.041241225 0.050410293 0.026246717 0.0058180112
0002b0 42 cf 3a bd 65 4c 53 bc bf 07 d7 bd 22 88 a3 3b
       -0.045607813 -0.012896632 -0.10499524 0.0049905935
0002c0 cc d3 51 3c 27 15 3d 3d a0 a2 89 bd 0f d0 b2 bd
       0.012806844 0.04616275 -0.067204714 -0.0873109
0002d0 d7 0d 80 3d 3c 99 00 be 00 b2 85 bd dd 7f b2 bd
       0.0625264 -0.12558454 -0.065280914 -0.08715794
0002e0 45 ae 94 bd 6f 2a 65 bd 08 88 00 bd de ef fd bb
       -0.07259802 -0.05594867 -0.03137973 -0.0077495417
0002f0 77 27 a2 3d 81 94 6c 3a b1 f5 07 be 14 47 c0 3c
       0.079176836 0.00090248144 -0.13277318 0.023471393
000300 4b d6 0c 3d a9 ef 61 3d 67 e6 bf bd 58 a6 c7 bc
       0.034384053 0.0551602 -0.09370118 -0.024371311
000310 42 65 50 3c 6f 33 93 bd f8 21 e7 bd 6b d4 62 bc
       0.012719454 -0.071875446 -0.11285776 -0.01384459
000320 01 7f a5 bd 26 5b 3a be 23 46 1b 3e 9f 8c f0 bd
       -0.08080865 -0.18198833 0.15163474 -0.11745571
000330 c0 9a 18 bc 12 7e df bc ed 04 89 3d 72 8f 06 be
       -0.009314239 -0.027281795 0.06690393 -0.13140658
000340 2a 80 18 3e 9a fa de bd f5 e3 26 be cd bb 9a bc
       0.1489264 -0.10887642 -0.16297896 -0.018888379
000350 f7 e2 22 3e 19 3e a8 3d 56 b4 37 be 79 ee 85 be
       0.15906893 0.08214969 -0.17939886 -0.26158503
000360 46 0b 2c 3e 19 40 4f be 3b 4a 0b 3e 4d de 8f 3d
       0.16801175 -0.20239295 0.13602535 0.070248224
000370 91 62 de 3d d6 a6 8e 3b 0f e6 d5 bd 37 e3 68 bd
       0.10858644 0.0043533845 -0.10444271 -0.056857314
000380 31 97 b9 3d a6 b3 b6 bc 2c b5 f0 bd 48 6d e2 3d
       0.090620406 -0.02230246 -0.11753306 0.11056
000390 a0 29 e1 bc 15 c2 bb bd d7 95 ad 3d cb 54 d4 bd
       -0.027485669 -0.091678776 0.08475845 -0.103677355
0003a0 ba 37 0f be 25 eb a7 bd e8 10 dd bd 4d b6 cc bd
       -0.13986102 -0.08199147 -0.1079424 -0.099957086
0003b0 0d 3f ff 3b 34 67 4c bd 08 19 56 3c c7 88 4d 3d
       0.0077894987 -0.04990311 0.013067491 0.05017927
0003c0 45 76 4e 3d ce 00 f8 bd cb 52 42 be 8d eb 0c 3e
       0.05040576 -0.121095285 -0.18976896 0.1376173
0003d0 ec c1 65 3e cb b4 dd bd da 04 21 bd 92 ab 8d 3d
       0.22437257 -0.10825499 -0.039311267 0.0691749
0003e0 02 c3 3c be 13 13 03 bc e3 43 76 3d fc b4 e5 3d
       -0.18433765 -0.008000153 0.060123336 0.11216161
0003f0 14 02 79 3d b9 c2 0a bd d4 ce 0e 3e dc ae 00 3c
       0.060792997 -0.03387711 0.13946086 0.00785419

gru.bias_ih_l0 f4 [384]
000000 40 95 d8 3b 4b e0 8e bd a6 0e f9 3c cc 95 32 3d
       0.006609589 -0.06976374 0.030402493 0.04359989
000010 2c 18 ea 3c 7a 02 5b bd 73 d3 3d bc bb bc c5 bc
       0.02857598 -0.05346916 -0.011586058 -0.024137845
000020 f0 a1 28 bd 50 e4 ec bc aa 13 c4 bd ab e3 81 bd
       -0.04117006 -0.028917462 -0.09574063 -0.06342252
000030 dd ff 2d bb 03 27 29 3b 88 02 f0 3c 4e eb c4 bb
       -0.0026550211 0.0025810606 0.029298082 -0.006009496
000040 99 e7 1b 3d 04 6c 59 bd ad d4 b6 3c 7d a0 99 bc
       0.038062666 -0.053081527 0.022318209 -0.018753285
000050 fe 06 49 bd 13 a4 9c 3a bc 90 5c bd 74 df 85 3d
       -0.049078934 0.0011950753 -0.053848967 0.06536761
000060 8e e6 a8 bc 92 10 d3 bd 48 53 54 3d 22 d2 22 bd
       -0.02061775 -0.10305895 0.051837236 -0.03975118
000070 ef 42 a4 ba 3b 17 ba bc e2 bb c8 bb 3c 1e cc 3c
       -0.0012532155 -0.022716155 -0.006125913 0.02491676
000080 24 80 52 3d 5f 5f 27 bd e4 e1 b2 bc 5e e4 c5 bd
       0.051391736 -0.040862437 -0.021836229 -0.09662698
000090 c4 29 66 bb 96 71 d7 bd 44 9a 88 bd 6d 9f 00 3d
       -0.003512011 -0.10519712 -0.06670049 0.03140204
0000a0 d1 ba 9c bd b4 17 ef bd e8 34 1e 3c 4a bf 4b 3d
       -0.0765282 -0.11674443 0.0096561685 0.049742974
0000b0 8b 56 90 3d c1 93 ad bb a3 ab c6 bd 64 a5 1e be
       0.07047757 -0.0052971547 -0.09700706 -0.15492779
0000c0 85 56 ff bd 05 23 b7 bd 40 60 07 3d 29 ae 74 bd
       -0.12467674 -0.08942226 0.033050776 -0.059736405
0000d0 e3 67 8c bd 5d 21 de 3c af 79 19 3d e9 57 ba bd
       -0.06855752 0.027115518 0.037469562 -0.09098799
0000e0 ea 38 33 3d 46 0c 3c bd db 21 15 be 67 1e 20 3a
       0.04375545 -0.045910142 -0.14563696 0.0006108046
0000f0 d1 6d b1 bd b9 28 40 3d d3 51 65 bc 32 76 d0 3c
       -0.08663524 0.046913836 -0.013996559 0.025446985
000100 50 4a 0d bd b6 98 e1 bb 59 79 2c bd 2d 13 e2 bd
       -0.034494698 -0.0068846596 -0.042107914 -0.11038814
000110 f6 87 f3 bc 0d fa eb bc 0a e1 19 3d 91 f6 39 bd
       -0.029727917 -0.028805757 0.03756813 -0.04540116
000120 87 af 8c 3d de e2 89 3c bf a7 cf 3d 3d 86 f8 bd
       0.06869417 0.016831812 0.10139417 -0.12134979
000130 9e c0 79 bd d3 f0 9a bc 5e c8 e5 3c a4 1b 27 bd
       -0.06097471 -0.018913662 0.028049644 -0.040797845
000140 61 d2 da bc 6d de 3e bd 68 a4 f6 bd 04 c6 0d be
       -0.026711645 -0.04659884 -0.12043077 -0.13845068
000150 bc 4f 75 3d 8a 8a 0d be d2 40 a2 bc 0e f4 e1 bd
       0.059890494 -0.1382238 -0.0198063 -0.11032878
000160 51 8e 72 bd 34 41 c8 bd b0 98 52 3b de 26 89 3d
       -0.059217755 -0.097780615 0.0032134466 0.066968665
000170 c8 88 c5 bd ac fe 09 bd 66 d3 93 3d 1e 75 fd bd
       -0.096452296 -0.03369014 0.072180554 -0.12375854
000180 17 3e db bd 14 34 14 3c a8 92 49 3d 10 12 f0 bd
       -0.10705202 0.0090456195 0.049212128 -0.11722195
000190 d1 b4 64 be e7 fd 7c bc c0 9f 71 bc 18 3d ba bd
       -0.22334601 -0.015441394 -0.01474756 -0.09093684
0001a0 61 ba 88 bd 2e bb d0 bd 44 cb da 3c 22 66 ad 3b
       -0.06676174 -0.10191952 0.026708253 0.005291716
0001b0 eb 8d ac 3c 8d 6a 5f bd 12 1e 94 bc e2 5f c1 3b
       0.021063766 -0.054544974 -0.018080745 0.0059013227
0001c0 c7 46 aa bd 29 58 47 bc 29 48 8e bd 37 53 9f 3c
       -0.08314281 -0.012167015 -0.06947357 0.01944886
0001d0 2f cd 66 bd 0c 68 a1 3d db b6 31 bd 7a 79 05 3d
       -0.056348022 0.078811735 -0.043387275 0.032586552
0001e0 bc 9a d0 bb d3 d4 2e 3b 90 d2 1f bb ea 79 c1 bd
       -0.006366102 0.0026677146 -0.002438698 -0.094470814
0001f0 67 57 69 3d ab 77 13 3d 74 b3 7f 3d 40 a2 12 bd
       0.05696812 0.036002796 0.062427 -0.035799265
000200 1a 23 9c 3e 68 72 ad 3e 2a 10 7f 3e 59 96 2d be
       0.3049553 0.33876348 0.2490851 -0.16951884
000210 dd 11 c8 bd a2 2e 00 be e9 fb 10 3e 31 62 cf 3e
       -0.09769032 -0.12517789 0.14158596 0.40504602
000220 a0 e0 2e be 0a 65 8d be 2b 96 53 bd 21 b8 fd bd
       -0.17077875 -0.2761615 -0.051656883 -0.123886354
000230 a8 f6 89 bd 53 3e 9d bc ce 40 81 be 20 76 06 3e
       -0.06736499 -0.019194758 -0.25244755 0.13130999
000240 1b e6 0f 3e 6a fe 24 3e 93 7b 91 bd 0f 4c 00 3f
       0.14052622 0.16112676 -0.07103648 0.50116056
000250 dd 50 2c 3d 25 4f d7 bd cd 10 c3 bd 6c cf 4f 3d
       0.042069305 -0.105131425 -0.09524689 0.050734922
000260 f2 dd d1 bd d5 a6 ca 3d 7f c6 88 3e bc e0 7f 3e
       -0.10247411 0.09895102 0.2671394 0.24988073
000270 5a 4b 37 be 27 4b 5a 3e c0 6a 1f be 11 16 4c bb
       -0.17899838 0.21317731 -0.15568066 -0.0031141082
000280 db 07 8f 3e a5 45 13 be f8 00 36 3e d1 10 5b 3e
       0.2793568 -0.14382036 0.17773807 0.21393134
000290 1d e5 e4 3b b4 39 5c be e1 45 15 3e 95 92 55 bd
       0.0069853202 -0.21506387 0.14577438 -0.052141745
0002a0 43 9c d9 3d 23 76 f2 3d 03 55 03 bd 14 ac 3d 3e
       0.10625508 0.11838939 -0.032063495 0.18522674
0002b0 a8 84 00 3d c4 9f ba bd 79 39 65 3d 6b d4 4e 3e
       0.03137651 -0.09112504 0.055963013 0.20198219
0002c0 d2 3b b6 3d 58 c1 b6 bd 2a bf 2e 3d 7f ff 10 bd
       0.088981286 -0.08923596 0.042662777 -0.03539991
0002d0 19 83 50 3e 1d 9d 75 be be 48 1d 3e ca 28 83 be
       0.2036251 -0.23985715 0.1535978 -0.25617057
0002e0 92 46 c4 bd 35 32 99 be b8 73 5e bd 5f 0c 66 bd
       -0.09583773 -0.29921117 -0.054309577 -0.05616414
0002f0 2e 8d 94 3d 12 ba ca 3d 9c 7b 0f 3d 60 28 c8 3e
       0.072534904 0.09898771 0.035029992 0.39093304
000300 66 d4 b0 be 39 33 3d be e2 d2 73 3e c5 c7 60 be
       -0.34537047 -0.18476571 0.23810914 -0.21951206
000310 0c 47 f6 bd d6 99 be 3c 27 37 15 3e c8 bd 87 3e
       -0.1202527 0.023266714 0.1457182 0.2651198
000320 31 6a df bd 8a 04 7c 3d 56 ae 53 3e e2 c0 26 be
       -0.10908926 0.061527766 0.20671973 -0.16284516
000330 d6 53 4c 3e 41 cb 6c be 3e 8f 9a 3e a2 82 74 3e
       0.19953856 -0.2312441 0.3018741 0.23877957
000340 da 59 73 be fe 61 86 3e fe c9 7e 3d ad a7 20 3e
       -0.23764744 0.26246637 0.062204354 0.15688963
000350 55 25 f0 3d 70 2a 99 bd 66 d3 b0 bd a8 1b e7 3c
       0.117258705 -0.074787974 -0.08634071 0.02821143
000360 4a f5 08 be 74 a7 80 be 50 af bf 3d e1 90 84 bc
       -0.1337482 -0.25127757 0.0935961 -0.016182365
000370 f1 1b 07 3e 8f e3 14 3e af 52 b9 3d 11 28 82 bd
       0.13194253 0.14539932 0.09048974 -0.06355298
000380 f8 36 22 be ed c4 cb bd 28 c9 fe 3d ff f8 de bd
       -0.15841281 -0.0994967 0.12440711 -0.10887336
000390 f1 70 a7 be 26 29 30 be 23 d9 24 bd 03 d3 c0 3d
       -0.32703355 -0.17203197 -0.04024614 0.09415247
0003a0 48 c2 ee 3c 0c 51 37 3d bd ab af be 08 38 67 3e
       0.029145375 0.044755027 -0.34310713 0.22579968
0003b0 02 75 4f 3e 37 d2 8b be 3e 43 10 bd 67 a8 8c be
       0.20259479 -0.2730882 -0.035220377 -0.2747223
0003c0 06 c6 92 bd ee b0 a0 bd e3 6c 62 3d 97 ec 5a 3e
       -0.07166676 -0.07846247 0.055279624 0.21379314
0003d0 90 4b a2 bd 3c 26 60 be 62 81 e9 bc b8 00 0c 3e
       -0.07924569 -0.21889585 -0.028504077 0.13672149
0003e0 9d 72 29 3e 1e 6d 65 be 53 6a 0a 3e 6e af 36 3e
       0.16547628 -0.22404906 0.13517122 0.17840359
0003f0 aa fa 9d 3b 5a 36 10 3d 34 53 8f 3d 3e 6d f3 bd
       0.0048211413 0.035208084 0.069982916 -0.11886071

gru.bias_hh_l0 f4 [384]
000000 1b e2 26 bc e5 25 04 be 0c 78 f8 3c e6 0d b9 3c
       -0.010185744 -0.1290508 0.03033068 0.022589635
000010 33 80 be bd 0c 10 4a bc ab f4 42 bd 46 47 c2 3c
       -0.09301796 -0.012332927 -0.047596615 0.023715626
000020 14 40 60 bd a4 ea d5 bd bb 3b 1f bd 31 95 ad 3c
       -0.05474861 -0.10445145 -0.038875323 0.021189304
000030 d4 ad e0 3c 2b 54 ed bd c0 07 24 3d 84 bb 85 3d
       0.027426638 -0.115883194 0.040046453 0.065299064
000040 c8 17 bb bd ad 71 6d bd 52 fc f6 bc 6b 5c 57 3c
       -0.09135395 -0.057969738 -0.030149613 0.013144593
000050 96 71 da bd 1a e5 be bd bc b5 16 be 71 76 06 3d
       -0.10666196 -0.093210414 -0.14717764 0.0328278
000060 6e 13 8e bd 5b 20 d3 bc be a8 98 bd 27 9a 2f 3d
       -0.069373 -0.025772264 -0.0745406 0.04287162
000070 26 35 85 bd ae 31 33 bc 8b e4 76 bc 1e 2d d8 bc
       -0.06504278 -0.0109371375 -0.015069137 -0.026388701
000080 48 fb 92 3d 63 af c2 bd 1a 34 e5 3b 78 96 b0 3c
       0.07176834 -0.095061086 0.0069947364 0.021556124
000090 20 6e bf bd b2 71 00 39 a2 9b 3a bd f9 0f 54 3d
       -0.093471766 0.00012249386 -0.04555858 0.051773045
0000a0 a9 b1 a4 bd 0a 94 ef bd 6b 57 23 3d 91 91 bc 3d
       -0.080416985 -0.11698158 0.03987829 0.09207452
0000b0 85 dd da bc 19 c5 b1 b9 01 8b a3 3c fa 0f 3f be
       -0.026716957 -0.0003390692 0.019963743 -0.18658438
0000c0 7e f5 05 be f6 c9 32 bd a6 87 95 bc 00 60 e3 bd
       -0.13081929 -0.043649636 -0.018253159 -0.11102295
0000d0 07 a6 a7 bc c7 c2 e1 bd b6 fb 91 bc 4b 70 8b 3c
       -0.02046491 -0.11023479 -0.01782022 0.017021319
0000e0 0f 08 83 3d e7 d0 7c bd 1a e0 5f bc d1 eb 00 be
       0.063980214 -0.061722662 -0.01366427 -0.12589957
0000f0 83 25 96 3c 90 da b1 3b 70 54 b1 bd bd 5c 05 bd
       0.018328434 0.005427666 -0.08658683 -0.032559145
000100 c2 37 06 bd 7a 07 a1 bd 68 61 6e 3c eb 4f a8 bd
       -0.03276802 -0.07862754 0.014549591 -0.08218368
000110 9d 8f da bc 39 91 3d 3d bb 91 67 bd 8e 37 f2 3c
       -0.026679808 0.046281073 -0.056535464 0.029567506
000120 5e b7 01 3d 0f 99 5d bd 7c 32 10 b9 40 04 f5 3b
       0.031669013 -0.054101046 -0.00013751717 0.0074773133
000130 e0 ef 85 bd a7 3a b3 bd 0f b7 7c 3d 27 f1 b3 ba
       -0.06539893 -0.087514214 0.061698016 -0.0013728485
000140 ea 3d 0e be 9d 02 8b bd 00 91 31 bd fa 8f c5 bd
       -0.13890806 -0.06787608 -0.043351173 -0.09646602
000150 24 5b 99 3c f2 1f a9 bd 28 a4 45 3a 65 ad e8 bd
       0.018720217 -0.08258046 0.0007539415 -0.113611974
000160 47 ec 0c be 6c 8f e5 bd b7 be 73 bd 4e 24 da 3a
       -0.13762008 -0.11208996 -0.05950805 0.00166429
000170 6d 5b a8 bd b8 cc 94 bd 06 23 a9 3d a0 63 e1 3a
       -0.08220563 -0.072656095 0.08258633 0.0017195828
000180 3a 90 e2 bd 3b 03 7a 3d 22 c2 d8 bc 9c 2e 38 3d
       -0.11062665 0.061038237 -0.026459757 0.044966325
000190 31 e4 d1 bd e7 c0 d3 bd cb 64 fa 3c 3a 6e 52 be
       -0.10248602 -0.103395276 0.03056564 -0.2054986
0001a0 d0 4a 9d bd 4c aa a5 3c cc 07 3c 3a ad 92 40 3d
       -0.07680285 0.020222805 0.00071727927 0.04701488
0001b0 4e 20 7f bd ae 85 64 bd 6c 27 fa bd 55 5c 04 be
       -0.062286668 -0.05579155 -0.122145504 -0.12925847
0001c0 55 a7 96 bd 96 10 77 3c 92 31 87 bd 75 26 f1 bc
       -0.07356135 0.015079638 -0.06601252 -0.029437283
0001d0 68 a0 3d 3d 75 4e 57 3d 89 17 6f 3c 58 78 84 3d
       0.046295553 0.052565057 0.014593014 0.06468266
0001e0 02 9b 91 ba 66 df 54 bc 52 68 17 bd ba cf fe bb
       -0.0011108818 -0.012992715 -0.036964722 -0.007776228
0001f0 f4 f5 37 bc 8d 3b b4 bc 4a e5 aa 3d 2f f2 a4 bd
       -0.011228073 -0.022001052 0.08344515 -0.08054005
000200 a8 e9 77 3e 81 1e 84 3e bd 49 8c 3e cc 55 33 be
       0.24210227 0.25804523 0.27400008 -0.17513198
000210 00 ed cd bd 62 f7 01 be a8 5d 48 3b 9e ae d3 3e
       -0.1005497 -0.12692025 0.0030573402 0.4134416
000220 85 c6 fa bd a3 fb 73 be f6 92 88 bc 08 4d 0f be
       -0.12244896 -0.2382646 -0.016671639 -0.13994229
000230 e9 96 e6 bd 00 d1 af bd f0 42 88 be c6 e9 cd 3d
       -0.112592526 -0.085847855 -0.2661357 0.10054354
000240 c4 61 d7 3d d2 81 1f 3e 8a af 74 bd 4b 12 00 3f
       0.10516694 0.15576866 -0.05973772 0.5002791
000250 56 d3 be 3d 09 15 46 3b 03 ad 01 be b7 2c b0 bc
       0.09317653 0.003022494 -0.12663655 -0.021505697
000260 01 7b 24 be ab 95 cd 3d 8c 18 98 3e 2b 81 87 3e
       -0.16062547 0.100383125 0.29706228 0.26465735
000270 87 bd 75 bd 03 6a 21 3e 13 e5 36 be e1 8b ae bc
       -0.0599952 0.15763097 -0.17860822 -0.021306934
000280 e0 e2 43 3e 84 14 b0 bd 90 de 8c 3d ae ed 98 3e
       0.19129515 -0.08597663 0.06878388 0.29868835
000290 00 03 e7 bd e6 f6 3c be 29 02 51 3e 9d 31 10 be
       -0.11279869 -0.1845356 0.2041098 -0.14081426
0002a0 a1 0d 03 3e b9 7b d8 3d 2c 7b 4f bd 2b 1d 7c 3d
       0.12798168 0.10570473 -0.050654575 0.061551254
0002b0 38 4a 55 bd 43 f3 76 be 26 37 a0 3d 91 6b 5b 3e
       -0.052072734 -0.24116234 0.07823019 0.21427752
0002c0 7a ae c0 3d d2 f5 4a 3c f3 e7 94 3d 03 5e b2 bd
       0.09408279 0.01238771 0.07270803 -0.087093376
0002d0 ba f2 9b 3e 8a 22 5d be c8 70 71 3e 0e 64 8c be
       0.30458623 -0.21595207 0.23578179 -0.27420086
0002e0 36 eb 56 be 24 6a a2 be 1e ab 9d 3c 2a 1a 07 be
       -0.20988163 -0.31721604 0.019246634 -0.13193575
0002f0 ff d5 8b 3d 95 ca 37 3e a7 ac 3d 3d 5c 11 c0 3e
       0.06827926 0.17948373 0.046307232 0.37513244
000300 d8 d2 9c be e1 ba 8d be 60 09 78 3e b7 72 b5 bd
       -0.3062961 -0.2768164 0.24222326 -0.08859771
000310 ae 26 ee bd 87 19 93 bb 97 d4 86 3e 72 2d 83 3e
       -0.11628471 -0.004489127 0.26334068 0.2562061
000320 04 78 09 be 4a 0b a5 3d 1a ab 73 3e ee d7 2f be
       -0.13424689 0.08058794 0.23795739 -0.17172214
000330 08 04 6a 3e 79 0e a0 be 3c c9 65 3e 25 dc 69 3e
       0.228531 -0.31261042 0.22440046 0.22837885
000340 82 2d b1 be 73 af 7d 3e 90 8d 45 3d 25 11 69 3e
       -0.34605032 0.2477396 0.048230708 0.22760446
000350 ee 29 e8 3d 9c 1b 15 3d f1 65 e9 bd 71 72 0b 3e
       0.113361225 0.036403283 -0.11396397 0.13617875
000360 e7 fc c0 bd 4e f5 37 be 9d 45 44 3e a8 80 99 bd
       -0.09423237 -0.1796467 0.1916718 -0.07495242
000370 57 25 43 3e 1c 86 84 3e 8d a3 1c 3e ce 19 80 3d
       0.19057213 0.25883567 0.15296765 0.06254922
000380 c1 eb b6 bd b3 cb b2 3c 10 01 ed 3d 80 c6 f8 bd
       -0.08931685 0.021825647 0.11572468 -0.12147236
000390 13 e7 a7 be e6 14 93 be cb 8f 14 bd 6a 2d 52 3e
       -0.32793483 -0.28726882 -0.036269944 0.20525137
0003a0 a5 32 bb bb 97 96 21 3e ea 94 81 be 84 93 4b 3e
       -0.0057128244 0.15780102 -0.25308925 0.19880491
0003b0 9b b4 b1 3d 69 22 76 be b2 fe 2c bc ad 43 88 be
       0.08677026 -0.24036564 -0.010558771 -0.26614133
0003c0 6b cc 51 be ed 65 9d 3d 76 2a 36 3d 20 70 4d 3e
       -0.20488136 0.076854564 0.044474088 0.20062304
0003d0 27 44 49 bd 22 eb 22 be a1 d7 a9 bc 7d c3 a3 3b
       -0.04913726 -0.15910009 -0.020732703 0.0049976693
0003e0 42 67 18 3e 4c a1 32 be ef b8 35 3e 20 6c 5a 3e
       0.1488314 -0.17444342 0.17746328 0.21330309
0003f0 48 d9 54 bc b7 c3 be bd d0 0f 84 3d a0 e4 75 be
       -0.012991257 -0.093146734 0.064483285 -0.24012995

gru.weight_ih_l1 f4 [384, 128]
000000 15 94 00 be d9 e2 c9 3b 73 c4 8e 3d 50 97 0f 3b
       -0.12556489 0.0061610756 0.069710635 0.0021910258
000010 fc f8 85 bd 5d 1b 2f bd 45 c3 8b 3c 3c 5f a9 3b
       -0.065416306 -0.042750705 0.017060885 0.0051688235
000020 ec a3 ac 3d 32 5b 6e bc 4f fd 8c 3b cd f6 22 3d
       0.08429703 -0.01454811 0.0043026577 0.03978615
000030 12 26 52 bd b1 2b 4c 3d d2 aa 9f 3b 09 88 45 bd
       -0.051305838 0.049846355 0.0048726583 -0.048225436
000040 42 6e da bc 31 6c b1 bc 3b 0e 65 bc 93 35 91 bd
       -0.026663903 -0.021658035 -0.013980444 -0.070902966
000050 f1 b9 07 3d 60 7c bc bd d8 65 92 bd 9c 34 e3 bc
       0.033136312 -0.0920341 -0.071483314 -0.027735047
000060 d5 34 2e 3d 66 56 8b 3c f7 b4 b6 bd 32 90 8b 3d
       0.042530853 0.017008971 -0.08921235 0.068146124
000070 58 8e d8 3c 1d df 87 bd ed 85 be bd 3a 6a 3d 3d
       0.026435062 -0.06634352 -0.09302888 0.046243884
000080 c0 88 eb bd fd 37 8b bd fc 3f a1 bd fd 61 3f 3d
       -0.11500692 -0.06797788 -0.07873532 0.04672431
000090 4c 21 b0 bd 74 4e 8f 3d e2 f1 f4 3b 9c fb 01 3c
       -0.08600101 0.069973856 0.0074751237 0.0079335235
0000a0 4a 12 b8 3d aa 2a 09 3e 98 7a 2c 3d 20 54 e2 3d
       0.08987863 0.13395181 0.042109102 0.11051202
0000b0 fb 81 a0 3d 58 51 a1 3d 23 1f 94 bd ef 6b a8 bd
       0.07837292 0.07876843 -0.07232501 -0.08223712
0000c0 06 22 b8 3b 6f 93 4a bd 98 10 85 3d 01 4e 45 bd
       0.0056192903 -0.04945701 0.06497306 -0.048170093
0000d0 ec 4e 98 3d dd 59 d4 bc fe 1a 49 3b 05 08 27 b9
       0.07436928 -0.025921756 0.0030686255 -0.00015929349
0000e0 39 58 8a 3d 13 50 9c 3d 97 9c ed bd d1 0e 4b 3d
       0.067551084 0.076324604 -0.11602133 0.049574677
0000f0 45 0b 31 bc fe 45 4c bd 25 ca 2a bd 7c c9 73 bc
       -0.0108059095 -0.049871437 -0.041696686 -0.014879581
000100 f9 e7 bf 3c db 37 57 3c 2a 48 68 3d 34 f8 8f 3d
       0.023426043 0.013135876 0.056709446 0.07029763
000110 99 b3 de 3d 37 ea 31 bd 51 41 a4 3d 40 9d 74 bd
       0.10874099 -0.043436255 0.080202706 -0.059720278
000120 6f a6 a4 3d f9 8a 4f bd a0 58 ce 3c a8 52 35 3d
       0.08039557 -0.050669644 0.025188744 0.04426828
000130 e6 80 ac 3d ce 53 1b 3d cd 52 0c bd b1 de d2 3c
       0.08423023 0.03792172 -0.034258652 0.025740953
000140 0d 67 08 3e f3 74 eb bd 94 e2 02 bd 28 30 30 3c
       0.13320561 -0.11496916 -0.031954363 0.010753669
000150 71 b7 50 3d ec d5 15 3e c4 ee ad 3d 15 b3 02 bd
       0.050956193 0.14632386 0.084928066 -0.031909067
000160 31 de 11 3d 6e 74 4c 3d 96 9a c1 ba 7c 92 69 3d
       0.03561229 0.049915724 -0.0014770802 0.057024464
000170 84 54 d0 3d bb 47 3a bd 07 6c 18 bd 05 31 2b 3d
       0.1017237 -0.045478564 -0.037212398 0.041794796
000180 10 6b b6 3d bf 7e 23 3d ad 05 84 3d f5 b0 04 bd
       0.08907139 0.039915796 0.06446395 -0.032395322
000190 38 22 46 3d f8 5d 12 bd 54 4b 26 3d fe 1e 86 3a
       0.048372477 -0.035734147 0.040599182 0.0010232625
0001a0 cd 9b 41 3c ed 83 87 3d 2f 4e c6 bd 38 d9 92 3d
       0.011816931 0.0661696 -0.09682881 0.071703374
0001b0 28 1f 15 3d 89 91 b9 3d 59 86 5f bd 18 f9 8c bd
       0.036406666 0.09060962 -0.054571483 -0.06883448
0001c0 e1 89 85 3b 0f 14 1d bc 17 b5 0d bc c6 5b 92 3a
       0.0040752743 -0.009587302 -0.008649132 0.0011166267
0001d0 b8 ba 7e 3d 6c 56 e3 bd ec 5e a6 3d fa a3 c9 3d
       0.062189788 -0.11100468 0.08123574 0.09845729
0001e0 17 d4 0e bd c8 b6 9e bd 92 9a 18 3d 7a bc 3c 3c
       -0.034870233 -0.077497065 0.037256785 0.011519546
0001f0 f4 cd 33 bd 51 25 32 3c d0 5b aa 3c cb 00 79 3c
       -0.043897584 0.010873155 0.020795733 0.015197943
000200 ce e4 30 3d e7 69 c0 bd d5 75 20 3d f2 be 09 3d
       0.043186955 -0.09395199 0.039174873 0.033629365
000210 c5 d3 0d 3c c8 cb 60 3d 71 4c 6d 3d 2f dc 29 3d
       0.008656447 0.05488184 0.05793423 0.04146975
000220 4b 65 e2 bd 00 21 fc bb bc ab 44 3d d1 11 c2 3c
       -0.11054476 -0.0076943636 0.04801534 0.023690136
000230 7e cc ad bb 4d d9 10 3e 7c 53 8b 3d ac 0a 11 3e
       -0.0053039184 0.14145394 0.06803033 0.14164227
000240 52 ab d7 bc 20 1a 84 bc d7 b2 48 bd 15 94 b5 bd
       -0.02632681 -0.016125739 -0.04899868 -0.08866135
000250 c0 81 a7 bd e7 0a 04 bd 70 97 f1 3c a2 20 01 be
       -0.08179045 -0.03223696 0.029491156 -0.12610105
000260 f3 af 29 3e f3 e1 75 3c 6d 1f 1f 3d 92 3d 4a bd
       0.16571026 0.015007484 0.03884833 -0.049375124
000270 3d 4c 38 3d 5d 47 91 bd 2f 8a b2 3d c6 76 52 3d
       0.04499458 -0.070936896 0.08717763 0.051382802
000280 d1 8e e2 bc 59 3a c8 3a b6 e2 6c 3d d6 14 85 3d
       -0.02765599 0.0015276178 0.057833396 0.06498115
000290 fa dc 19 3d e7 d2 0a bd a1 32 c0 bd a0 a4 3b 39
       0.037564255 -0.03389254 -0.09384657 0.00017895037
0002a0 c6 07 48 3d 21 00 4d bd 3d eb 88 3d 3b 4c 32 bb
       0.04883554 -0.05004895 0.06685493 -0.0027206081
0002b0 ba 8c 41 bd de 66 f8 bc b0 48 46 bd 1b ea e8 3a
       -0.047253348 -0.030322488 -0.048409164 0.0017769964
0002c0 d5 bc 4d bc d5 7f 05 3d a7 c6 86 bd 50 ac 12 bd
       -0.012557228 0.032592613 -0.06580859 -0.03580886
0002d0 fd 97 7f bd 46 a3 3b 3d 05 f4 00 3d d9 5a c8 bb
       -0.062400807 0.045810007 0.031482715 -0.0061143455
0002e0 8d fa 08 be cd 45 b5 bb 76 c2 84 bd 14 e7 96 bb
       -0.13376828 -0.0055320025 -0.06482403 -0.0046051834
0002f0 7e 8c 8e 3d a0 c6 1b 3c 67 64 d9 3d 33 e6 d1 bd
       0.069603905 0.009507805 0.10614853 -0.10248985
000300 79 23 22 be 87 c9 29 3d dd 26 89 3c fa ba 91 3d
       -0.15833844 0.041451957 0.016742164 0.07115741
000310 9f 4c 6e 3d c5 7b cd bd a0 f1 82 b8 d7 db b0 bd
       0.05817854 -0.10033373 -6.243889e-05 -0.08635681
000320 ef b2 ab bd 5a 27 a3 bd 84 e4 94 3d e4 f8 38 3a
       -0.08383738 -0.0796649 0.072701484 0.00070561306
000330 b7 38 e5 bc 9f 4f b9 3d ec ef ab bd b8 3d d0 3b
       -0.027981145 0.0904839 -0.08395371 0.0063550137
000340 4b 2c 7e bd cc e1 3e bb 99 23 70 bc 1a ed 4d bd
       -0.06205396 -0.0029126285 -0.014656925 -0.050274946
000350 09 e1 81 bd e3 d5 2d 3d cd 0d e6 bd ef 4b ad bc
       -0.0634175 0.042440306 -0.11233101 -0.021154372
000360 50 d5 cd 3d 1c 03 a4 bd 23 8b c1 3d 5a 1d c1 3d
       0.10050452 -0.080084056 0.09450366 0.094294265
000370 78 d4 a7 3d 5c e1 06 be 1a 0e ba bb 25 68 a5 bd
       0.08194822 -0.13171905 -0.0056779506 -0.080765046
000380 12 24 be 3c 9a 7b 2d bd 0a ef 08 be 96 ac 6c 3c
       0.023210559 -0.042354204 -0.13372436 0.014445445
000390 f6 bd 95 3d 61 ce e7 bd 97 e8 99 3c ec e6 ad bd
       0.07311623 -0.113186605 0.018787665 -0.084913105
0003a0 bf 04 32 3d 49 93 94 bd 66 10 fb bc 2f 80 c3 3c
       0.043461557 -0.07254655 -0.030647468 0.023864834
0003b0 12 f3 14 3e 2d cf 04 3e f7 63 b1 3c f9 6a f4 3d
       0.14545849 0.12969656 0.021654112 0.11934466
0003c0 98 0d 82 bd 4f 0d ab 3d 2c bc 0b 3d 11 67 5d bd
       -0.06350249 0.08352148 0.034115 -0.05405337
0003d0 7a 75 7f 3c 19 dd 56 bd dc 2d a3 3d 79 6d 8e 3d
       0.015591973 -0.05245695 0.07967731 0.06954474
0003e0 d0 41 97 bd b6 8e 10 bd 8d 74 f7 3d fc 50 c4 3d
       -0.073855996 -0.03529235 0.12082777 0.09585759
0003f0 e3 d2 df 3d 8c 7c 5c 3d fa a4 14 bd 6e 5f a9 bd
       0.10928895 0.053829715 -0.036290146 -0.08270155

gru.weight_hh_l1 f4 [384, 128]
000000 2c 64 1f bd e3 be 2c bc 90 90 42 bd d2 3f de 3d
       -0.03891389 -0.010543558 -0.047501147 0.108520165
000010 8f 6f 66 bd 85 fb 93 3d 49 a5 a1 3c 88 28 cf 3b
       -0.056258734 0.07225708 0.019732134 0.0063219704
000020 32 90 94 3b bf 56 fb bd 53 51 82 bc a2 c1 0b bc
       0.004533791 -0.12272405 -0.015907919 -0.008530052
000030 ee 3f da 3d 71 bc 09 bd ec 6f 82 3d 3c db f4 bc
       0.10656725 -0.033626977 0.06369004 -0.029889695
000040 40 19 fd bd 27 f1 5a 3d ea 95 fe bc a8 da 94 bd
       -0.12358332 0.053452637 -0.031077344 -0.07268268
000050 29 2b 91 3c ea 21 a0 3c 7d 01 37 3c c6 f4 72 bc
       0.017720776 0.019547421 0.011169788 -0.014828866
000060 e2 93 80 3d fe 11 4f bd 3f 7c 95 bd cc f8 b4 3c
       0.062782064 -0.050554268 -0.07299089 0.022091292
000070 f6 ff dc 3d 00 00 27 3d 19 55 54 3d 1d 1b 06 3d
       0.10791008 0.040771484 0.051838968 0.0327407
000080 e2 c9 9d 3d c7 2e f4 3c 70 4c db 3d 6a 39 4e bd
       0.07704522 0.029807461 0.10707939 -0.050347723
000090 df 18 e6 3d f8 be 48 bd eb 2b 49 3d ee 07 23 3b
       0.112352125 -0.049010247 0.04911415 0.0024876553
0000a0 17 55 a8 3d 15 e9 19 be e7 e1 61 3d bc 3f 3f 3d
       0.082193546 -0.1503032 0.055147078 0.04669164
0000b0 10 68 d8 3c 6a 38 9a bd fc a5 88 ba bc d9 17 3e
       0.026416808 -0.075302914 -0.0010425444 0.14829153
0000c0 85 a1 a1 bb 9e 4b ac bd e2 a5 dc bd b5 6a 47 3d
       -0.0049325847 -0.0841286 -0.10773827 0.048685748
0000d0 7b 36 02 3d fa 2b 0b 3b eb e6 9f bc 67 20 0e bd
       0.031790238 0.002123593 -0.01951929 -0.03469887
0000e0 2e 4d c3 bb 55 59 a9 bd 71 da 6f 3d 14 d0 c8 bd
       -0.0059601283 -0.08268992 0.05855793 -0.09805313
0000f0 b0 02 9d 3d 4f ae 23 3d 94 09 61 bd a5 7f ad 3d
       0.07666528 0.039961156 -0.054940775 0.08471612
000100 f2 40 44 3d 6f 0e 08 bd 60 bd b2 bd c2 fe 3b bd
       0.0479135 -0.03321689 -0.08727527 -0.045897253
000110 4c 16 8c 3d 89 7d 95 3d 35 c9 2b 3d f3 a3 8e bd
       0.0684019 0.072993346 0.041939933 -0.069648646
000120 25 d4 b7 3c a7 6b 74 3d 18 dd b6 bc 3a 47 c3 bd
       0.022440026 0.059672978 -0.022322223 -0.0953507
000130 7b 69 8f 3d 49 d8 71 3d 7f 50 71 3d f7 86 a0 bc
       0.07002541 0.059044156 0.058914658 -0.019595606
000140 14 3e 8f bd d0 a4 82 3d 2c 78 1e bd 62 68 86 bd
       -0.06994262 0.06379092 -0.038688824 -0.06562878
000150 a2 fe 16 bd 05 59 5e 3d a4 ef 80 bd 6a ee 46 3b
       -0.03686393 0.054284114 -0.06295708 0.0030354508
000160 50 b4 28 3d 34 41 e1 3b 64 bf 86 bd 9f 48 51 bc
       0.041187584 0.006874228 -0.065794736 -0.012773662
000170 7a 12 44 3d 05 d5 a0 3d 24 af 32 3d 1a d5 90 3d
       0.047869183 0.0785313 0.04362406 0.07071896
000180 48 ac c2 3c cd 6b 00 bc 6c 8b 06 3d 9b 01 84 bd
       0.02376379 -0.007838202 0.032847807 -0.06445619
000190 14 d3 7e 3d 8c 76 53 3c 01 66 21 3d c2 c2 b8 bc
       0.06221302 0.012906682 0.03940392 -0.022553805
0001a0 a7 8d cb bc 4f 04 dc 3c 3d bc f5 3d c1 0c 76 bd
       -0.024847819 0.026857523 0.11998794 -0.060070757
0001b0 5c 74 80 bc 1e 6f 2a 3d bd 16 e6 bc 73 56 cf 3a
       -0.015680484 0.041609876 -0.028087014 0.001581861
0001c0 44 e1 80 3d 90 d1 3b bd 9a 8b 5e 3d 75 ee e1 3c
       0.06292966 -0.04585415 0.054332353 0.027579525
0001d0 a0 22 02 bd 43 25 33 3d 1b 44 31 bd 50 5b 35 3d
       -0.031771302 0.043736707 -0.04327784 0.044276536
0001e0 af 08 86 bd 54 cd 6f bd 20 77 0e 3c ac 04 c5 bd
       -0.06544625 -0.058545426 0.008695394 -0.09620032
0001f0 c3 31 93 bb dd 3d fa bc b0 3f 97 3c ae 35 1f 3d
       -0.004492016 -0.030547077 0.018462986 0.038869552
000200 d5 85 8d bd 9d 79 bb bd 3f 58 85 3d 75 1d 7c bd
       -0.06910292 -0.09154055 0.06510972 -0.06155153
000210 9a f8 a1 3d f7 c8 94 bd 30 94 d0 3d a4 b5 0b 3e
       0.07908745 -0.072648935 0.101845145 0.13643509
000220 12 3c 91 3b ba 64 c0 bd 35 f5 1c 3d 4e 21 41 3d
       0.00443221 -0.09394212 0.038319785 0.047150902
000230 bd e0 08 be 24 c2 ae 3d ea dc 47 bd f9 9f 14 3c
       -0.13366981 0.08533123 -0.048794664 0.009071344
000240 9b 2f b3 3d 4e b0 09 bc d5 e4 e5 3b cc 4e bd bd
       0.087493144 -0.008403851 0.0070158043 -0.09243545
000250 e6 fd f5 bb 87 8f 28 3c fd 06 29 3d 53 27 51 bd
       -0.0075070737 0.010288126 0.04126643 -0.051062893
000260 c7 6a ca bd b4 f4 c6 bd c2 73 b5 bd 6e e1 04 bd
       -0.098836474 -0.09714642 -0.0885997 -0.03244155
000270 14 4f b3 bc 0f e5 4c 3d a1 c3 57 bd 5b c2 5c bd
       -0.021888293 0.050023135 -0.0526768 -0.05389629
000280 47 c5 25 3d 2e 49 43 bd c8 6c 82 3d 5d 02 9c bc
       0.04047134 -0.04767721 0.063684046 -0.019044096
000290 63 d9 37 3c 8f b8 cb 3c a1 a6 4a 3d 58 93 f6 3c
       0.011221263 0.024868278 0.049475316 0.030099556
0002a0 f9 f6 93 bc 93 e2 14 3b f9 53 be 3d 7e e1 0e 3d
       -0.018062102 0.0022718057 0.0929336 0.034883015
0002b0 a2 74 23 bd bc 5b d2 3d 9a 1b b9 bc 8a a6 cd 3d
       -0.03990615 0.10271403 -0.02259617 0.100415304
0002c0 45 f7 fb 3d 04 07 8d bd 8f 61 94 bd b3 5a 9e bb
       0.12303022 -0.06886104 -0.0724517 -0.0048325895
0002d0 47 f0 26 3c 61 27 0c be 94 9c 65 3d 9d 2d 94 3d
       0.0101891225 -0.13686897 0.056057528 0.072352625
0002e0 83 a0 88 3d ad 32 c4 bd 54 65 5f 3d 77 7e 0b be
       0.0667124 -0.09579978 0.054539993 -0.13622461
0002f0 50 9b 35 3d 0a 67 93 bc 4e f0 72 bd af 94 b3 3c
       0.04433757 -0.017993469 -0.059311204 0.021921484
000300 c4 43 0d be 6f bd 8b 3d ef af 9a 3c d9 0a 60 3d
       -0.13795382 0.06823241 0.01888272 0.054697845
000310 10 7b 1d bd 8f 02 44 3d 58 cd 63 bd 1b 0a f3 bc
       -0.03844744 0.047854003 -0.055615753 -0.029667905
000320 a0 36 69 3d 20 c7 b8 3c d1 bc 80 bd 84 d6 35 3b
       0.05693686 0.022555888 -0.06286014 0.002774627
000330 fb 99 d5 3d d2 cd e3 3a 6a fe 4d bd 56 ee 02 3d
       0.1042976 0.0017380065 -0.050291456 0.031965576
000340 77 83 b0 bd cf 60 ed 3c 0a 2b 95 3d aa 7c e0 3c
       -0.08618825 0.028976826 0.072836 0.027403194
000350 52 af c9 3d bd 4f 7b 3d 25 aa 88 bd 03 c2 5e 3d
       0.09847893 0.06135534 -0.066730775 0.054384243
000360 5f 72 9b 3d f1 31 9b bd 62 27 76 3c 57 be 57 3d
       0.07590174 -0.07577885 0.015024038 0.052671757
000370 17 f3 81 bc 31 54 76 3c 50 02 70 bd c8 cc 9c bd
       -0.015862985 0.015034721 -0.058595955 -0.076562464
000380 10 b8 8f 3c fb ca c7 3c c6 b7 49 3e fa d7 3d bd
       0.017543823 0.02438878 0.1969901 -0.04634855
000390 e0 f2 19 be 28 ba 23 3d bc c5 94 3d eb ba dc 3c
       -0.15034056 0.039972454 0.07264277 0.026944598
0003a0 b6 e9 57 3d 04 ee 26 bd e6 00 92 bd b5 d2 77 bd
       0.05271312 -0.040754333 -0.071290776 -0.06050368
0003b0 36 2d a3 bc 48 f6 a0 bd bf 86 99 bd 2c 89 c6 bc
       -0.01991902 -0.078594744 -0.07496404 -0.02423533
0003c0 23 e4 fd 3d 14 e6 66 bd a2 b1 33 3d 43 73 bc 3d
       0.12397029 -0.056371763 0.043870576 0.09201672
0003d0 65 2f b7 bc 8f fb 09 bd b1 ec fd 3c b3 33 ca 3c
       -0.022361467 -0.03368717 0.030996652 0.024682855
0003e0 7e 0a 53 3b 6e f8 70 bd 95 94 7f 3d 10 1b 9c bd
       0.0032202299 -0.05883067 0.06239756 -0.07622349
0003f0 0c 47 e7 3d fc 5a 8e 3d 3e 09 bc 3b 3a d0 a6 bd
       0.11292848 0.06950948 0.0057384064 -0.08145185

gru.bias_ih_l1 f4 [384]
000000 08 9e ac b8 81 11 13 bd 26 7d 34 3d be 89 d1 bb
       -8.231035e-05 -0.035905365 0.044064663 -0.006394594
000010 b5 97 34 bd 63 b8 fd bd e5 85 e4 3b 3a a5 22 bd
       -0.04408999 -0.123886846 0.0069739693 -0.039708354
000020 20 12 7b bd e1 a3 ab bd c1 73 da bc ba f8 2e bc
       -0.061296582 -0.08380867 -0.026666524 -0.010679418
000030 dc ee 84 3c 89 1b 21 bd 75 86 61 bd 0f 18 ad 3c
       0.016227178 -0.0393329 -0.05505987 0.021129636
000040 bd 3d 97 bc 85 e4 c0 bd e2 ba 8f bd 01 2e 8f bd
       -0.018462056 -0.09418587 -0.07018067 -0.069911964
000050 fc 9b 45 3d e7 6f bb bc 91 a8 e8 bd b2 5a 0f be
       0.04824446 -0.022880508 -0.113602765 -0.13999441
000060 d0 36 0d 3d 1f cf ba 3c ed 51 3f be 3e 14 23 bd
       0.0344761 0.022803841 -0.18683596 -0.039814226
000070 4c 4f 04 be 5a e7 85 bd 51 49 96 bd cd 2f 01 be
       -0.12920874 -0.065382674 -0.07338203 -0.12615891
000080 dd 7c f4 3d 22 78 0e be e5 14 62 3d 92 28 34 bd
       0.11937878 -0.13913015 0.055195708 -0.043984003
000090 c8 1b 98 3c 82 30 36 bd f9 3c de 3d 48 dc d3 3c
       0.018567935 -0.044479854 0.10851473 0.025861874
0000a0 4f 87 44 bd 40 e0 1d 3d 92 d0 ca bb 91 7d ed bd
       -0.047980603 0.03854394 -0.0061894143 -0.115962155
0000b0 ee ab 78 bc 9e e7 db bd 75 6a 30 bd 87 2a c0 3b
       -0.01517771 -0.10737537 -0.043070275 0.0058644447
0000c0 ad 76 bc bc 59 66 8d bd 1a 6d 80 bd 92 4f a8 bd
       -0.023005808 -0.06904287 -0.062708095 -0.08218302
0000d0 e2 17 8e bd f5 ae be bc 1c f9 fe 3c 1d 05 35 bd
       -0.06938149 -0.023276785 0.031124644 -0.04419433
0000e0 ad af 7c 3d 76 ec e4 3b e3 04 c2 3c 26 68 11 be
       0.061690975 0.006986196 0.02368397 -0.14199886
0000f0 15 c2 ac bd 47 71 a5 bd 7b 0a 86 3d c2 1d 3d bc
       -0.08435456 -0.080782466 0.06544968 -0.011542739
000100 6e fa 92 bd 3f 66 60 bd e3 7a 14 bd 0f 5c 41 bd
       -0.07176672 -0.05478501 -0.036250006 -0.047206935
000110 cd 6c a9 3c 15 6e 81 3d ad 64 8b bd de aa a3 bc
       0.020681763 0.063198246 -0.06806312 -0.019978937
000120 6e 6d 23 bd a5 a0 2d 3d 72 04 cb bc 9a fe 7a bc
       -0.039899282 0.04238953 -0.024782393 -0.015319491
000130 44 ad 14 be 0e d0 ab bd d2 8d b8 bc 31 76 b2 bd
       -0.1451922 -0.08389293 -0.022528563 -0.087139495
000140 28 66 51 bd a9 13 93 bd cd 87 d4 bd 69 cb ac bd
       -0.051122814 -0.07181484 -0.103774644 -0.08437235
000150 5d 4c 01 be 09 2f c5 3c be b8 aa bd dd 10 b6 bc
       -0.12626787 0.02407028 -0.08336018 -0.022224838
000160 a4 e9 43 bd 9a 00 19 bb ba 36 0c 3d b4 c3 86 bd
       -0.04783024 -0.0023346306 0.03423188 -0.06580296
000170 5a 8e 1c be 30 f4 4f bc 14 0f fd bd 66 ca 8c bd
       -0.15288678 -0.012692496 -0.123563915 -0.06874542
000180 15 91 48 be 5a 68 b4 3d 55 58 c0 3c 73 e5 f4 bd
       -0.19586594 0.08808966 0.02347962 -0.119578265
000190 81 d4 94 bd 8f 0b a7 bd 0f 98 85 bd 33 bf 78 bd
       -0.072670944 -0.081565015 -0.065231435 -0.060729217
0001a0 c1 80 ca bd da 11 16 be 85 11 b2 bb 48 ab 7d bd
       -0.09887839 -0.14655247 -0.0054342174 -0.061930925
0001b0 a1 8f 00 3d 0c 09 dd bd e5 8e 36 bd 07 1e 44 bd
       0.031386975 -0.10792741 -0.04456987 -0.0478802
0001c0 d6 1a 4c bd 73 d7 8c 3d 64 d3 fe bd ec c2 98 bc
       -0.04983028 0.06877031 -0.12442663 -0.018647633
0001d0 b2 06 9d bd 13 1f 65 bd 17 ef 01 3c f4 ba 4e 3d
       -0.07667293 -0.055937838 0.007930539 0.05047126
0001e0 b0 67 b2 3d ac a8 9d bd 90 d3 fd bc 49 b5 01 bd
       0.08711183 -0.07698187 -0.03098467 -0.031667028
0001f0 32 81 05 3d 91 10 98 3c b1 9e f0 bd ce 37 97 bd
       0.032593913 0.018562587 -0.11749018 -0.07383691
000200 e9 19 48 3e a7 e8 8a 3e b6 97 42 bd 12 12 24 3e
       0.19541134 0.27130625 -0.047507964 0.16022518
000210 1f e7 4f 3e 8e b6 b2 3d ec 53 ac 3d e6 46 31 3e
       0.2030301 0.08726226 0.08414444 0.17312202
000220 3a 44 98 3d ee fc a9 3c 60 69 e8 3d c2 7d 3e 3e
       0.07434888 0.02075049 0.11348224 0.1860266
000230 54 4b 30 3d ca b0 d5 3c 22 7f 23 3e 7f c3 6c 3e
       0.04304059 0.026085276 0.15966466 0.23121451
000240 2a 09 be bd fe 60 4e bd 73 7d 92 3e ae d2 1d be
       -0.09279092 -0.050385468 0.28611335 -0.15412399
000250 01 a5 71 3c de a8 c7 3d ec c5 a6 bd 18 a5 7f 3e
       0.014748813 0.09749006 -0.08143219 0.24965322
000260 d4 a7 95 3d 2d b9 c4 3e 16 cd 75 3e d3 84 8b 3e
       0.07307401 0.38422528 0.24004015 0.27249774
000270 68 d2 3f 3d e6 51 f4 bc 2b 04 1d 3e 6b 5d f9 3c
       0.04683152 -0.029824208 0.15333621 0.030440053
000280 7a ad 12 3e 1b 2a c3 3d d9 ee d3 3c b9 38 1d be
       0.14323989 0.09529515 0.025870727 -0.15353669
000290 8b 6e ca bd e8 d3 d3 3d a5 ab 70 3e 51 a8 fc 3d
       -0.09884366 0.10343152 0.23502977 0.12336791
0002a0 0f 06 a6 3d a3 81 90 3c fd a7 08 3e ee c6 86 bd
       0.08106624 0.01763994 0.13345332 -0.065809116
0002b0 89 95 05 be 12 79 e3 3c 06 bb 6a 3d da 36 a8 3d
       -0.13045324 0.027767692 0.057307266 0.08213587
0002c0 d2 fa ea 3c 0f d2 82 3d c5 c4 cb 3d 2d 4a 85 3d
       0.028684054 0.06387722 0.0994964 0.065082885
0002d0 64 23 e4 3d 00 9d a9 bd 95 21 56 3e 46 96 3d be
       0.11139563 -0.082818985 0.20911248 -0.18514356
0002e0 9b 3d 14 3e 04 d5 58 3d 4c 2c 50 3e a7 5b 06 bd
       0.14476626 0.052937523 0.20329398 -0.03280225
0002f0 af 88 aa 3d 9d 4b 1e be 7b 3e 38 3e 5b f9 98 3d
       0.083268516 -0.15458532 0.17992584 0.07469436
000300 28 9f 41 3e 88 45 0f be af e6 52 3d 40 c3 1d 3e
       0.1890837 -0.13991368 0.05148953 0.15406513
000310 57 80 30 bd 9e 7a e9 3d 74 d3 ab 3d 2d 48 21 3d
       -0.043091144 0.114003405 0.08389941 0.039375473
000320 01 c5 db 3d b0 82 24 3e 26 2a a3 bd 99 96 15 3e
       0.10730935 0.16065478 -0.079670236 0.1460823
000330 d4 2a cd 3d 6e 1e 3f 3e 49 ad 82 3d ac 53 79 3d
       0.100179344 0.18663952 0.06380708 0.06087081
000340 63 ea e1 3d 0a 92 55 3e 08 ee 66 3e e7 8e 91 3c
       0.11031034 0.2085649 0.22551739 0.017768336
000350 43 10 82 3d c4 97 a3 3b 87 82 3e bd 62 e1 87 3d
       0.06350758 0.004992457 -0.0465112 0.06634785
000360 39 c9 4b 3e fe b0 24 3b 66 2b 25 3e 0c 2d 68 3e
       0.19900979 0.002512991 0.16129836 0.22673434
000370 f4 5e 89 3e 32 95 2c 3e 25 6e d5 bc 9f 9f b0 3d
       0.26830256 0.16853788 -0.026053498 0.08624195
000380 44 3d 9f 3e ab 7c 78 3d aa 02 d2 3e 99 00 23 3d
       0.3110143 0.060665768 0.41017658 0.03979549
000390 8d 8f 8d 3e 7c c5 a8 bd c5 81 97 3d 33 39 be 3c
       0.27648583 -0.08240792 0.073977984 0.023220634
0003a0 1a 9b a5 3e 03 da 6a 3d 4e d9 12 3e 18 66 6c bd
       0.32344896 0.05733682 0.14340708 -0.05771455
0003b0 80 fc 93 3d ce af 1b 3e a8 ac 47 3e 7f 1a a8 bd
       0.07225895 0.15203783 0.19499457 -0.08208179
0003c0 cf 0c 88 bc f6 0b a9 3d 4d 0d 41 bd d6 68 76 3e
       -0.01660767 0.082542345 -0.047131825 0.24063429
0003d0 b9 b2 be 3d 72 65 1e 3e 64 aa 46 3d 25 41 16 bd
       0.093114324 0.15468386 0.04850234 -0.03668322
0003e0 89 95 a6 3d 33 e4 4a 3e d1 34 41 3e 47 36 ec bd
       0.0813399 0.19813614 0.18867804 -0.1153379
0003f0 e4 73 96 3e f5 e1 b2 bd cd 54 65 3c 82 90 48 3e
       0.29385293 -0.08734504 0.013997269 0.19586375
